ir_version: 10
producer_name: "pytorch"
producer_version: "2.10.0+cu128"
model_version: 0
graph {
  name: "main_graph"
  node {
    input: "images"
    input: "val_5"
    output: "view"
    name: "node_view"
    op_type: "Reshape"
    attribute {
      name: "allowzero"
      i: 1
      type: INT
    }

  }
  node {
    input: "view"
    input: "img_backbone.conv1.weight"
    input: "img_backbone.conv1.weight_bias"
    output: "getitem"
    name: "node_Conv_4873"
    op_type: "Conv"
    attribute {
      name: "group"
      i: 1
      type: INT
    }
    attribute {
      name: "pads"
      ints: 3
      ints: 3
      ints: 3
      ints: 3
      type: INTS
    }
    attribute {
      name: "auto_pad"
      s: "NOTSET"
      type: STRING
    }
    attribute {
      name: "strides"
      ints: 2
      ints: 2
      type: INTS
    }
    attribute {
      name: "dilations"
      ints: 1
      ints: 1
      type: INTS
    }

  }
  node {
    input: "getitem"
    output: "relu"
    name: "node_relu"
    op_type: "Relu"

  }
  node {
    input: "relu"
    output: "max_pool2d"
    name: "node_max_pool2d"
    op_type: "MaxPool"
    attribute {
      name: "storage_order"
      i: 0
      type: INT
    }
    attribute {
      name: "dilations"
      ints: 1
      ints: 1
      type: INTS
    }
    attribute {
      name: "ceil_mode"
      i: 0
      type: INT
    }
    attribute {
      name: "pads"
      ints: 1
      ints: 1
      ints: 1
      ints: 1
      type: INTS
    }
    attribute {
      name: "auto_pad"
      s: "NOTSET"
      type: STRING
    }
    attribute {
      name: "strides"
      ints: 2
      ints: 2
      type: INTS
    }
    attribute {
      name: "kernel_shape"
      ints: 3
      ints: 3
      type: INTS
    }

  }
  node {
    input: "max_pool2d"
    input: "img_backbone.layer1.0.conv1.weight"
    input: "img_backbone.layer1.0.conv1.weight_bias"
    output: "getitem_3"
    name: "node_Conv_4875"
    op_type: "Conv"
    attribute {
      name: "group"
      i: 1
      type: INT
    }
    attribute {
      name: "pads"
      ints: 0
      ints: 0
      ints: 0
      ints: 0
      type: INTS
    }
    attribute {
      name: "auto_pad"
      s: "NOTSET"
      type: STRING
    }
    attribute {
      name: "strides"
      ints: 1
      ints: 1
      type: INTS
    }
    attribute {
      name: "dilations"
      ints: 1
      ints: 1
      type: INTS
    }

  }
  node {
    input: "getitem_3"
    output: "relu_1"
    name: "node_relu_1"
    op_type: "Relu"

  }
  node {
    input: "relu_1"
    input: "img_backbone.layer1.0.conv2.weight"
    input: "img_backbone.layer1.0.conv2.weight_bias"
    output: "getitem_6"
    name: "node_Conv_4877"
    op_type: "Conv"
    attribute {
      name: "group"
      i: 1
      type: INT
    }
    attribute {
      name: "pads"
      ints: 1
      ints: 1
      ints: 1
      ints: 1
      type: INTS
    }
    attribute {
      name: "auto_pad"
      s: "NOTSET"
      type: STRING
    }
    attribute {
      name: "strides"
      ints: 1
      ints: 1
      type: INTS
    }
    attribute {
      name: "dilations"
      ints: 1
      ints: 1
      type: INTS
    }

  }
  node {
    input: "getitem_6"
    output: "relu_2"
    name: "node_relu_2"
    op_type: "Relu"

  }
  node {
    input: "relu_2"
    input: "img_backbone.layer1.0.conv3.weight"
    input: "img_backbone.layer1.0.conv3.weight_bias"
    output: "getitem_9"
    name: "node_Conv_4879"
    op_type: "Conv"
    attribute {
      name: "group"
      i: 1
      type: INT
    }
    attribute {
      name: "pads"
      ints: 0
      ints: 0
      ints: 0
      ints: 0
      type: INTS
    }
    attribute {
      name: "auto_pad"
      s: "NOTSET"
      type: STRING
    }
    attribute {
      name: "strides"
      ints: 1
      ints: 1
      type: INTS
    }
    attribute {
      name: "dilations"
      ints: 1
      ints: 1
      type: INTS
    }

  }
  node {
    input: "max_pool2d"
    input: "img_backbone.layer1.0.downsample.0.weight"
    input: "img_backbone.layer1.0.downsample.0.weight_bias"
    output: "getitem_12"
    name: "node_Conv_4881"
    op_type: "Conv"
    attribute {
      name: "group"
      i: 1
      type: INT
    }
    attribute {
      name: "pads"
      ints: 0
      ints: 0
      ints: 0
      ints: 0
      type: INTS
    }
    attribute {
      name: "auto_pad"
      s: "NOTSET"
      type: STRING
    }
    attribute {
      name: "strides"
      ints: 1
      ints: 1
      type: INTS
    }
    attribute {
      name: "dilations"
      ints: 1
      ints: 1
      type: INTS
    }

  }
  node {
    input: "getitem_9"
    input: "getitem_12"
    output: "add"
    name: "node_add"
    op_type: "Add"

  }
  node {
    input: "add"
    output: "relu_3"
    name: "node_relu_3"
    op_type: "Relu"

  }
  node {
    input: "relu_3"
    input: "img_backbone.layer1.1.conv1.weight"
    input: "img_backbone.layer1.1.conv1.weight_bias"
    output: "getitem_15"
    name: "node_Conv_4883"
    op_type: "Conv"
    attribute {
      name: "group"
      i: 1
      type: INT
    }
    attribute {
      name: "pads"
      ints: 0
      ints: 0
      ints: 0
      ints: 0
      type: INTS
    }
    attribute {
      name: "auto_pad"
      s: "NOTSET"
      type: STRING
    }
    attribute {
      name: "strides"
      ints: 1
      ints: 1
      type: INTS
    }
    attribute {
      name: "dilations"
      ints: 1
      ints: 1
      type: INTS
    }

  }
  node {
    input: "getitem_15"
    output: "relu_4"
    name: "node_relu_4"
    op_type: "Relu"

  }
  node {
    input: "relu_4"
    input: "img_backbone.layer1.1.conv2.weight"
    input: "img_backbone.layer1.1.conv2.weight_bias"
    output: "getitem_18"
    name: "node_Conv_4885"
    op_type: "Conv"
    attribute {
      name: "group"
      i: 1
      type: INT
    }
    attribute {
      name: "pads"
      ints: 1
      ints: 1
      ints: 1
      ints: 1
      type: INTS
    }
    attribute {
      name: "auto_pad"
      s: "NOTSET"
      type: STRING
    }
    attribute {
      name: "strides"
      ints: 1
      ints: 1
      type: INTS
    }
    attribute {
      name: "dilations"
      ints: 1
      ints: 1
      type: INTS
    }

  }
  node {
    input: "getitem_18"
    output: "relu_5"
    name: "node_relu_5"
    op_type: "Relu"

  }
  node {
    input: "relu_5"
    input: "img_backbone.layer1.1.conv3.weight"
    input: "img_backbone.layer1.1.conv3.weight_bias"
    output: "getitem_21"
    name: "node_Conv_4887"
    op_type: "Conv"
    attribute {
      name: "group"
      i: 1
      type: INT
    }
    attribute {
      name: "pads"
      ints: 0
      ints: 0
      ints: 0
      ints: 0
      type: INTS
    }
    attribute {
      name: "auto_pad"
      s: "NOTSET"
      type: STRING
    }
    attribute {
      name: "strides"
      ints: 1
      ints: 1
      type: INTS
    }
    attribute {
      name: "dilations"
      ints: 1
      ints: 1
      type: INTS
    }

  }
  node {
    input: "getitem_21"
    input: "relu_3"
    output: "add_1"
    name: "node_add_1"
    op_type: "Add"

  }
  node {
    input: "add_1"
    output: "relu_6"
    name: "node_relu_6"
    op_type: "Relu"

  }
  node {
    input: "relu_6"
    input: "img_backbone.layer1.2.conv1.weight"
    input: "img_backbone.layer1.2.conv1.weight_bias"
    output: "getitem_24"
    name: "node_Conv_4889"
    op_type: "Conv"
    attribute {
      name: "group"
      i: 1
      type: INT
    }
    attribute {
      name: "pads"
      ints: 0
      ints: 0
      ints: 0
      ints: 0
      type: INTS
    }
    attribute {
      name: "auto_pad"
      s: "NOTSET"
      type: STRING
    }
    attribute {
      name: "strides"
      ints: 1
      ints: 1
      type: INTS
    }
    attribute {
      name: "dilations"
      ints: 1
      ints: 1
      type: INTS
    }

  }
  node {
    input: "getitem_24"
    output: "relu_7"
    name: "node_relu_7"
    op_type: "Relu"

  }
  node {
    input: "relu_7"
    input: "img_backbone.layer1.2.conv2.weight"
    input: "img_backbone.layer1.2.conv2.weight_bias"
    output: "getitem_27"
    name: "node_Conv_4891"
    op_type: "Conv"
    attribute {
      name: "group"
      i: 1
      type: INT
    }
    attribute {
      name: "pads"
      ints: 1
      ints: 1
      ints: 1
      ints: 1
      type: INTS
    }
    attribute {
      name: "auto_pad"
      s: "NOTSET"
      type: STRING
    }
    attribute {
      name: "strides"
      ints: 1
      ints: 1
      type: INTS
    }
    attribute {
      name: "dilations"
      ints: 1
      ints: 1
      type: INTS
    }

  }
  node {
    input: "getitem_27"
    output: "relu_8"
    name: "node_relu_8"
    op_type: "Relu"

  }
  node {
    input: "relu_8"
    input: "img_backbone.layer1.2.conv3.weight"
    input: "img_backbone.layer1.2.conv3.weight_bias"
    output: "getitem_30"
    name: "node_Conv_4893"
    op_type: "Conv"
    attribute {
      name: "group"
      i: 1
      type: INT
    }
    attribute {
      name: "pads"
      ints: 0
      ints: 0
      ints: 0
      ints: 0
      type: INTS
    }
    attribute {
      name: "auto_pad"
      s: "NOTSET"
      type: STRING
    }
    attribute {
      name: "strides"
      ints: 1
      ints: 1
      type: INTS
    }
    attribute {
      name: "dilations"
      ints: 1
      ints: 1
      type: INTS
    }

  }
  node {
    input: "getitem_30"
    input: "relu_6"
    output: "add_2"
    name: "node_add_2"
    op_type: "Add"

  }
  node {
    input: "add_2"
    output: "relu_9"
    name: "node_relu_9"
    op_type: "Relu"

  }
  node {
    input: "relu_9"
    input: "img_backbone.layer2.0.conv1.weight"
    input: "img_backbone.layer2.0.conv1.weight_bias"
    output: "getitem_33"
    name: "node_Conv_4895"
    op_type: "Conv"
    attribute {
      name: "group"
      i: 1
      type: INT
    }
    attribute {
      name: "pads"
      ints: 0
      ints: 0
      ints: 0
      ints: 0
      type: INTS
    }
    attribute {
      name: "auto_pad"
      s: "NOTSET"
      type: STRING
    }
    attribute {
      name: "strides"
      ints: 1
      ints: 1
      type: INTS
    }
    attribute {
      name: "dilations"
      ints: 1
      ints: 1
      type: INTS
    }

  }
  node {
    input: "getitem_33"
    output: "relu_10"
    name: "node_relu_10"
    op_type: "Relu"

  }
  node {
    input: "relu_10"
    input: "img_backbone.layer2.0.conv2.weight"
    input: "img_backbone.layer2.0.conv2.weight_bias"
    output: "getitem_36"
    name: "node_Conv_4897"
    op_type: "Conv"
    attribute {
      name: "group"
      i: 1
      type: INT
    }
    attribute {
      name: "pads"
      ints: 1
      ints: 1
      ints: 1
      ints: 1
      type: INTS
    }
    attribute {
      name: "auto_pad"
      s: "NOTSET"
      type: STRING
    }
    attribute {
      name: "strides"
      ints: 2
      ints: 2
      type: INTS
    }
    attribute {
      name: "dilations"
      ints: 1
      ints: 1
      type: INTS
    }

  }
  node {
    input: "getitem_36"
    output: "relu_11"
    name: "node_relu_11"
    op_type: "Relu"

  }
  node {
    input: "relu_11"
    input: "img_backbone.layer2.0.conv3.weight"
    input: "img_backbone.layer2.0.conv3.weight_bias"
    output: "getitem_39"
    name: "node_Conv_4899"
    op_type: "Conv"
    attribute {
      name: "group"
      i: 1
      type: INT
    }
    attribute {
      name: "pads"
      ints: 0
      ints: 0
      ints: 0
      ints: 0
      type: INTS
    }
    attribute {
      name: "auto_pad"
      s: "NOTSET"
      type: STRING
    }
    attribute {
      name: "strides"
      ints: 1
      ints: 1
      type: INTS
    }
    attribute {
      name: "dilations"
      ints: 1
      ints: 1
      type: INTS
    }

  }
  node {
    input: "relu_9"
    input: "img_backbone.layer2.0.downsample.0.weight"
    input: "img_backbone.layer2.0.downsample.0.weight_bias"
    output: "getitem_42"
    name: "node_Conv_4901"
    op_type: "Conv"
    attribute {
      name: "group"
      i: 1
      type: INT
    }
    attribute {
      name: "pads"
      ints: 0
      ints: 0
      ints: 0
      ints: 0
      type: INTS
    }
    attribute {
      name: "auto_pad"
      s: "NOTSET"
      type: STRING
    }
    attribute {
      name: "strides"
      ints: 2
      ints: 2
      type: INTS
    }
    attribute {
      name: "dilations"
      ints: 1
      ints: 1
      type: INTS
    }

  }
  node {
    input: "getitem_39"
    input: "getitem_42"
    output: "add_3"
    name: "node_add_3"
    op_type: "Add"

  }
  node {
    input: "add_3"
    output: "relu_12"
    name: "node_relu_12"
    op_type: "Relu"

  }
  node {
    input: "relu_12"
    input: "img_backbone.layer2.1.conv1.weight"
    input: "img_backbone.layer2.1.conv1.weight_bias"
    output: "getitem_45"
    name: "node_Conv_4903"
    op_type: "Conv"
    attribute {
      name: "group"
      i: 1
      type: INT
    }
    attribute {
      name: "pads"
      ints: 0
      ints: 0
      ints: 0
      ints: 0
      type: INTS
    }
    attribute {
      name: "auto_pad"
      s: "NOTSET"
      type: STRING
    }
    attribute {
      name: "strides"
      ints: 1
      ints: 1
      type: INTS
    }
    attribute {
      name: "dilations"
      ints: 1
      ints: 1
      type: INTS
    }

  }
  node {
    input: "getitem_45"
    output: "relu_13"
    name: "node_relu_13"
    op_type: "Relu"

  }
  node {
    input: "relu_13"
    input: "img_backbone.layer2.1.conv2.weight"
    input: "img_backbone.layer2.1.conv2.weight_bias"
    output: "getitem_48"
    name: "node_Conv_4905"
    op_type: "Conv"
    attribute {
      name: "group"
      i: 1
      type: INT
    }
    attribute {
      name: "pads"
      ints: 1
      ints: 1
      ints: 1
      ints: 1
      type: INTS
    }
    attribute {
      name: "auto_pad"
      s: "NOTSET"
      type: STRING
    }
    attribute {
      name: "strides"
      ints: 1
      ints: 1
      type: INTS
    }
    attribute {
      name: "dilations"
      ints: 1
      ints: 1
      type: INTS
    }

  }
  node {
    input: "getitem_48"
    output: "relu_14"
    name: "node_relu_14"
    op_type: "Relu"

  }
  node {
    input: "relu_14"
    input: "img_backbone.layer2.1.conv3.weight"
    input: "img_backbone.layer2.1.conv3.weight_bias"
    output: "getitem_51"
    name: "node_Conv_4907"
    op_type: "Conv"
    attribute {
      name: "group"
      i: 1
      type: INT
    }
    attribute {
      name: "pads"
      ints: 0
      ints: 0
      ints: 0
      ints: 0
      type: INTS
    }
    attribute {
      name: "auto_pad"
      s: "NOTSET"
      type: STRING
    }
    attribute {
      name: "strides"
      ints: 1
      ints: 1
      type: INTS
    }
    attribute {
      name: "dilations"
      ints: 1
      ints: 1
      type: INTS
    }

  }
  node {
    input: "getitem_51"
    input: "relu_12"
    output: "add_4"
    name: "node_add_4"
    op_type: "Add"

  }
  node {
    input: "add_4"
    output: "relu_15"
    name: "node_relu_15"
    op_type: "Relu"

  }
  node {
    input: "relu_15"
    input: "img_backbone.layer2.2.conv1.weight"
    input: "img_backbone.layer2.2.conv1.weight_bias"
    output: "getitem_54"
    name: "node_Conv_4909"
    op_type: "Conv"
    attribute {
      name: "group"
      i: 1
      type: INT
    }
    attribute {
      name: "pads"
      ints: 0
      ints: 0
      ints: 0
      ints: 0
      type: INTS
    }
    attribute {
      name: "auto_pad"
      s: "NOTSET"
      type: STRING
    }
    attribute {
      name: "strides"
      ints: 1
      ints: 1
      type: INTS
    }
    attribute {
      name: "dilations"
      ints: 1
      ints: 1
      type: INTS
    }

  }
  node {
    input: "getitem_54"
    output: "relu_16"
    name: "node_relu_16"
    op_type: "Relu"

  }
  node {
    input: "relu_16"
    input: "img_backbone.layer2.2.conv2.weight"
    input: "img_backbone.layer2.2.conv2.weight_bias"
    output: "getitem_57"
    name: "node_Conv_4911"
    op_type: "Conv"
    attribute {
      name: "group"
      i: 1
      type: INT
    }
    attribute {
      name: "pads"
      ints: 1
      ints: 1
      ints: 1
      ints: 1
      type: INTS
    }
    attribute {
      name: "auto_pad"
      s: "NOTSET"
      type: STRING
    }
    attribute {
      name: "strides"
      ints: 1
      ints: 1
      type: INTS
    }
    attribute {
      name: "dilations"
      ints: 1
      ints: 1
      type: INTS
    }

  }
  node {
    input: "getitem_57"
    output: "relu_17"
    name: "node_relu_17"
    op_type: "Relu"

  }
  node {
    input: "relu_17"
    input: "img_backbone.layer2.2.conv3.weight"
    input: "img_backbone.layer2.2.conv3.weight_bias"
    output: "getitem_60"
    name: "node_Conv_4913"
    op_type: "Conv"
    attribute {
      name: "group"
      i: 1
      type: INT
    }
    attribute {
      name: "pads"
      ints: 0
      ints: 0
      ints: 0
      ints: 0
      type: INTS
    }
    attribute {
      name: "auto_pad"
      s: "NOTSET"
      type: STRING
    }
    attribute {
      name: "strides"
      ints: 1
      ints: 1
      type: INTS
    }
    attribute {
      name: "dilations"
      ints: 1
      ints: 1
      type: INTS
    }

  }
  node {
    input: "getitem_60"
    input: "relu_15"
    output: "add_5"
    name: "node_add_5"
    op_type: "Add"

  }
  node {
    input: "add_5"
    output: "relu_18"
    name: "node_relu_18"
    op_type: "Relu"

  }
  node {
    input: "relu_18"
    input: "img_backbone.layer2.3.conv1.weight"
    input: "img_backbone.layer2.3.conv1.weight_bias"
    output: "getitem_63"
    name: "node_Conv_4915"
    op_type: "Conv"
    attribute {
      name: "group"
      i: 1
      type: INT
    }
    attribute {
      name: "pads"
      ints: 0
      ints: 0
      ints: 0
      ints: 0
      type: INTS
    }
    attribute {
      name: "auto_pad"
      s: "NOTSET"
      type: STRING
    }
    attribute {
      name: "strides"
      ints: 1
      ints: 1
      type: INTS
    }
    attribute {
      name: "dilations"
      ints: 1
      ints: 1
      type: INTS
    }

  }
  node {
    input: "getitem_63"
    output: "relu_19"
    name: "node_relu_19"
    op_type: "Relu"

  }
  node {
    input: "relu_19"
    input: "img_backbone.layer2.3.conv2.weight"
    input: "img_backbone.layer2.3.conv2.weight_bias"
    output: "getitem_66"
    name: "node_Conv_4917"
    op_type: "Conv"
    attribute {
      name: "group"
      i: 1
      type: INT
    }
    attribute {
      name: "pads"
      ints: 1
      ints: 1
      ints: 1
      ints: 1
      type: INTS
    }
    attribute {
      name: "auto_pad"
      s: "NOTSET"
      type: STRING
    }
    attribute {
      name: "strides"
      ints: 1
      ints: 1
      type: INTS
    }
    attribute {
      name: "dilations"
      ints: 1
      ints: 1
      type: INTS
    }

  }
  node {
    input: "getitem_66"
    output: "relu_20"
    name: "node_relu_20"
    op_type: "Relu"

  }
  node {
    input: "relu_20"
    input: "img_backbone.layer2.3.conv3.weight"
    input: "img_backbone.layer2.3.conv3.weight_bias"
    output: "getitem_69"
    name: "node_Conv_4919"
    op_type: "Conv"
    attribute {
      name: "group"
      i: 1
      type: INT
    }
    attribute {
      name: "pads"
      ints: 0
      ints: 0
      ints: 0
      ints: 0
      type: INTS
    }
    attribute {
      name: "auto_pad"
      s: "NOTSET"
      type: STRING
    }
    attribute {
      name: "strides"
      ints: 1
      ints: 1
      type: INTS
    }
    attribute {
      name: "dilations"
      ints: 1
      ints: 1
      type: INTS
    }

  }
  node {
    input: "getitem_69"
    input: "relu_18"
    output: "add_6"
    name: "node_add_6"
    op_type: "Add"

  }
  node {
    input: "add_6"
    output: "relu_21"
    name: "node_relu_21"
    op_type: "Relu"

  }
  node {
    input: "relu_21"
    input: "img_backbone.layer3.0.conv1.weight"
    input: "img_backbone.layer3.0.conv1.weight_bias"
    output: "getitem_72"
    name: "node_Conv_4921"
    op_type: "Conv"
    attribute {
      name: "group"
      i: 1
      type: INT
    }
    attribute {
      name: "pads"
      ints: 0
      ints: 0
      ints: 0
      ints: 0
      type: INTS
    }
    attribute {
      name: "auto_pad"
      s: "NOTSET"
      type: STRING
    }
    attribute {
      name: "strides"
      ints: 1
      ints: 1
      type: INTS
    }
    attribute {
      name: "dilations"
      ints: 1
      ints: 1
      type: INTS
    }

  }
  node {
    input: "getitem_72"
    output: "relu_22"
    name: "node_relu_22"
    op_type: "Relu"

  }
  node {
    input: "relu_22"
    input: "img_backbone.layer3.0.conv2.weight"
    input: "img_backbone.layer3.0.conv2.weight_bias"
    output: "getitem_75"
    name: "node_Conv_4923"
    op_type: "Conv"
    attribute {
      name: "group"
      i: 1
      type: INT
    }
    attribute {
      name: "pads"
      ints: 1
      ints: 1
      ints: 1
      ints: 1
      type: INTS
    }
    attribute {
      name: "auto_pad"
      s: "NOTSET"
      type: STRING
    }
    attribute {
      name: "strides"
      ints: 2
      ints: 2
      type: INTS
    }
    attribute {
      name: "dilations"
      ints: 1
      ints: 1
      type: INTS
    }

  }
  node {
    input: "getitem_75"
    output: "relu_23"
    name: "node_relu_23"
    op_type: "Relu"

  }
  node {
    input: "relu_23"
    input: "img_backbone.layer3.0.conv3.weight"
    input: "img_backbone.layer3.0.conv3.weight_bias"
    output: "getitem_78"
    name: "node_Conv_4925"
    op_type: "Conv"
    attribute {
      name: "group"
      i: 1
      type: INT
    }
    attribute {
      name: "pads"
      ints: 0
      ints: 0
      ints: 0
      ints: 0
      type: INTS
    }
    attribute {
      name: "auto_pad"
      s: "NOTSET"
      type: STRING
    }
    attribute {
      name: "strides"
      ints: 1
      ints: 1
      type: INTS
    }
    attribute {
      name: "dilations"
      ints: 1
      ints: 1
      type: INTS
    }

  }
  node {
    input: "relu_21"
    input: "img_backbone.layer3.0.downsample.0.weight"
    input: "img_backbone.layer3.0.downsample.0.weight_bias"
    output: "getitem_81"
    name: "node_Conv_4927"
    op_type: "Conv"
    attribute {
      name: "group"
      i: 1
      type: INT
    }
    attribute {
      name: "pads"
      ints: 0
      ints: 0
      ints: 0
      ints: 0
      type: INTS
    }
    attribute {
      name: "auto_pad"
      s: "NOTSET"
      type: STRING
    }
    attribute {
      name: "strides"
      ints: 2
      ints: 2
      type: INTS
    }
    attribute {
      name: "dilations"
      ints: 1
      ints: 1
      type: INTS
    }

  }
  node {
    input: "getitem_78"
    input: "getitem_81"
    output: "add_7"
    name: "node_add_7"
    op_type: "Add"

  }
  node {
    input: "add_7"
    output: "relu_24"
    name: "node_relu_24"
    op_type: "Relu"

  }
  node {
    input: "relu_24"
    input: "img_backbone.layer3.1.conv1.weight"
    input: "img_backbone.layer3.1.conv1.weight_bias"
    output: "getitem_84"
    name: "node_Conv_4929"
    op_type: "Conv"
    attribute {
      name: "group"
      i: 1
      type: INT
    }
    attribute {
      name: "pads"
      ints: 0
      ints: 0
      ints: 0
      ints: 0
      type: INTS
    }
    attribute {
      name: "auto_pad"
      s: "NOTSET"
      type: STRING
    }
    attribute {
      name: "strides"
      ints: 1
      ints: 1
      type: INTS
    }
    attribute {
      name: "dilations"
      ints: 1
      ints: 1
      type: INTS
    }

  }
  node {
    input: "getitem_84"
    output: "relu_25"
    name: "node_relu_25"
    op_type: "Relu"

  }
  node {
    input: "relu_25"
    input: "img_backbone.layer3.1.conv2.weight"
    input: "img_backbone.layer3.1.conv2.weight_bias"
    output: "getitem_87"
    name: "node_Conv_4931"
    op_type: "Conv"
    attribute {
      name: "group"
      i: 1
      type: INT
    }
    attribute {
      name: "pads"
      ints: 1
      ints: 1
      ints: 1
      ints: 1
      type: INTS
    }
    attribute {
      name: "auto_pad"
      s: "NOTSET"
      type: STRING
    }
    attribute {
      name: "strides"
      ints: 1
      ints: 1
      type: INTS
    }
    attribute {
      name: "dilations"
      ints: 1
      ints: 1
      type: INTS
    }

  }
  node {
    input: "getitem_87"
    output: "relu_26"
    name: "node_relu_26"
    op_type: "Relu"

  }
  node {
    input: "relu_26"
    input: "img_backbone.layer3.1.conv3.weight"
    input: "img_backbone.layer3.1.conv3.weight_bias"
    output: "getitem_90"
    name: "node_Conv_4933"
    op_type: "Conv"
    attribute {
      name: "group"
      i: 1
      type: INT
    }
    attribute {
      name: "pads"
      ints: 0
      ints: 0
      ints: 0
      ints: 0
      type: INTS
    }
    attribute {
      name: "auto_pad"
      s: "NOTSET"
      type: STRING
    }
    attribute {
      name: "strides"
      ints: 1
      ints: 1
      type: INTS
    }
    attribute {
      name: "dilations"
      ints: 1
      ints: 1
      type: INTS
    }

  }
  node {
    input: "getitem_90"
    input: "relu_24"
    output: "add_8"
    name: "node_add_8"
    op_type: "Add"

  }
  node {
    input: "add_8"
    output: "relu_27"
    name: "node_relu_27"
    op_type: "Relu"

  }
  node {
    input: "relu_27"
    input: "img_backbone.layer3.2.conv1.weight"
    input: "img_backbone.layer3.2.conv1.weight_bias"
    output: "getitem_93"
    name: "node_Conv_4935"
    op_type: "Conv"
    attribute {
      name: "group"
      i: 1
      type: INT
    }
    attribute {
      name: "pads"
      ints: 0
      ints: 0
      ints: 0
      ints: 0
      type: INTS
    }
    attribute {
      name: "auto_pad"
      s: "NOTSET"
      type: STRING
    }
    attribute {
      name: "strides"
      ints: 1
      ints: 1
      type: INTS
    }
    attribute {
      name: "dilations"
      ints: 1
      ints: 1
      type: INTS
    }

  }
  node {
    input: "getitem_93"
    output: "relu_28"
    name: "node_relu_28"
    op_type: "Relu"

  }
  node {
    input: "relu_28"
    input: "img_backbone.layer3.2.conv2.weight"
    input: "img_backbone.layer3.2.conv2.weight_bias"
    output: "getitem_96"
    name: "node_Conv_4937"
    op_type: "Conv"
    attribute {
      name: "group"
      i: 1
      type: INT
    }
    attribute {
      name: "pads"
      ints: 1
      ints: 1
      ints: 1
      ints: 1
      type: INTS
    }
    attribute {
      name: "auto_pad"
      s: "NOTSET"
      type: STRING
    }
    attribute {
      name: "strides"
      ints: 1
      ints: 1
      type: INTS
    }
    attribute {
      name: "dilations"
      ints: 1
      ints: 1
      type: INTS
    }

  }
  node {
    input: "getitem_96"
    output: "relu_29"
    name: "node_relu_29"
    op_type: "Relu"

  }
  node {
    input: "relu_29"
    input: "img_backbone.layer3.2.conv3.weight"
    input: "img_backbone.layer3.2.conv3.weight_bias"
    output: "getitem_99"
    name: "node_Conv_4939"
    op_type: "Conv"
    attribute {
      name: "group"
      i: 1
      type: INT
    }
    attribute {
      name: "pads"
      ints: 0
      ints: 0
      ints: 0
      ints: 0
      type: INTS
    }
    attribute {
      name: "auto_pad"
      s: "NOTSET"
      type: STRING
    }
    attribute {
      name: "strides"
      ints: 1
      ints: 1
      type: INTS
    }
    attribute {
      name: "dilations"
      ints: 1
      ints: 1
      type: INTS
    }

  }
  node {
    input: "getitem_99"
    input: "relu_27"
    output: "add_9"
    name: "node_add_9"
    op_type: "Add"

  }
  node {
    input: "add_9"
    output: "relu_30"
    name: "node_relu_30"
    op_type: "Relu"

  }
  node {
    input: "relu_30"
    input: "img_backbone.layer3.3.conv1.weight"
    input: "img_backbone.layer3.3.conv1.weight_bias"
    output: "getitem_102"
    name: "node_Conv_4941"
    op_type: "Conv"
    attribute {
      name: "group"
      i: 1
      type: INT
    }
    attribute {
      name: "pads"
      ints: 0
      ints: 0
      ints: 0
      ints: 0
      type: INTS
    }
    attribute {
      name: "auto_pad"
      s: "NOTSET"
      type: STRING
    }
    attribute {
      name: "strides"
      ints: 1
      ints: 1
      type: INTS
    }
    attribute {
      name: "dilations"
      ints: 1
      ints: 1
      type: INTS
    }

  }
  node {
    input: "getitem_102"
    output: "relu_31"
    name: "node_relu_31"
    op_type: "Relu"

  }
  node {
    input: "relu_31"
    input: "img_backbone.layer3.3.conv2.weight"
    input: "img_backbone.layer3.3.conv2.weight_bias"
    output: "getitem_105"
    name: "node_Conv_4943"
    op_type: "Conv"
    attribute {
      name: "group"
      i: 1
      type: INT
    }
    attribute {
      name: "pads"
      ints: 1
      ints: 1
      ints: 1
      ints: 1
      type: INTS
    }
    attribute {
      name: "auto_pad"
      s: "NOTSET"
      type: STRING
    }
    attribute {
      name: "strides"
      ints: 1
      ints: 1
      type: INTS
    }
    attribute {
      name: "dilations"
      ints: 1
      ints: 1
      type: INTS
    }

  }
  node {
    input: "getitem_105"
    output: "relu_32"
    name: "node_relu_32"
    op_type: "Relu"

  }
  node {
    input: "relu_32"
    input: "img_backbone.layer3.3.conv3.weight"
    input: "img_backbone.layer3.3.conv3.weight_bias"
    output: "getitem_108"
    name: "node_Conv_4945"
    op_type: "Conv"
    attribute {
      name: "group"
      i: 1
      type: INT
    }
    attribute {
      name: "pads"
      ints: 0
      ints: 0
      ints: 0
      ints: 0
      type: INTS
    }
    attribute {
      name: "auto_pad"
      s: "NOTSET"
      type: STRING
    }
    attribute {
      name: "strides"
      ints: 1
      ints: 1
      type: INTS
    }
    attribute {
      name: "dilations"
      ints: 1
      ints: 1
      type: INTS
    }

  }
  node {
    input: "getitem_108"
    input: "relu_30"
    output: "add_10"
    name: "node_add_10"
    op_type: "Add"

  }
  node {
    input: "add_10"
    output: "relu_33"
    name: "node_relu_33"
    op_type: "Relu"

  }
  node {
    input: "relu_33"
    input: "img_backbone.layer3.4.conv1.weight"
    input: "img_backbone.layer3.4.conv1.weight_bias"
    output: "getitem_111"
    name: "node_Conv_4947"
    op_type: "Conv"
    attribute {
      name: "group"
      i: 1
      type: INT
    }
    attribute {
      name: "pads"
      ints: 0
      ints: 0
      ints: 0
      ints: 0
      type: INTS
    }
    attribute {
      name: "auto_pad"
      s: "NOTSET"
      type: STRING
    }
    attribute {
      name: "strides"
      ints: 1
      ints: 1
      type: INTS
    }
    attribute {
      name: "dilations"
      ints: 1
      ints: 1
      type: INTS
    }

  }
  node {
    input: "getitem_111"
    output: "relu_34"
    name: "node_relu_34"
    op_type: "Relu"

  }
  node {
    input: "relu_34"
    input: "img_backbone.layer3.4.conv2.weight"
    input: "img_backbone.layer3.4.conv2.weight_bias"
    output: "getitem_114"
    name: "node_Conv_4949"
    op_type: "Conv"
    attribute {
      name: "group"
      i: 1
      type: INT
    }
    attribute {
      name: "pads"
      ints: 1
      ints: 1
      ints: 1
      ints: 1
      type: INTS
    }
    attribute {
      name: "auto_pad"
      s: "NOTSET"
      type: STRING
    }
    attribute {
      name: "strides"
      ints: 1
      ints: 1
      type: INTS
    }
    attribute {
      name: "dilations"
      ints: 1
      ints: 1
      type: INTS
    }

  }
  node {
    input: "getitem_114"
    output: "relu_35"
    name: "node_relu_35"
    op_type: "Relu"

  }
  node {
    input: "relu_35"
    input: "img_backbone.layer3.4.conv3.weight"
    input: "img_backbone.layer3.4.conv3.weight_bias"
    output: "getitem_117"
    name: "node_Conv_4951"
    op_type: "Conv"
    attribute {
      name: "group"
      i: 1
      type: INT
    }
    attribute {
      name: "pads"
      ints: 0
      ints: 0
      ints: 0
      ints: 0
      type: INTS
    }
    attribute {
      name: "auto_pad"
      s: "NOTSET"
      type: STRING
    }
    attribute {
      name: "strides"
      ints: 1
      ints: 1
      type: INTS
    }
    attribute {
      name: "dilations"
      ints: 1
      ints: 1
      type: INTS
    }

  }
  node {
    input: "getitem_117"
    input: "relu_33"
    output: "add_11"
    name: "node_add_11"
    op_type: "Add"

  }
  node {
    input: "add_11"
    output: "relu_36"
    name: "node_relu_36"
    op_type: "Relu"

  }
  node {
    input: "relu_36"
    input: "img_backbone.layer3.5.conv1.weight"
    input: "img_backbone.layer3.5.conv1.weight_bias"
    output: "getitem_120"
    name: "node_Conv_4953"
    op_type: "Conv"
    attribute {
      name: "group"
      i: 1
      type: INT
    }
    attribute {
      name: "pads"
      ints: 0
      ints: 0
      ints: 0
      ints: 0
      type: INTS
    }
    attribute {
      name: "auto_pad"
      s: "NOTSET"
      type: STRING
    }
    attribute {
      name: "strides"
      ints: 1
      ints: 1
      type: INTS
    }
    attribute {
      name: "dilations"
      ints: 1
      ints: 1
      type: INTS
    }

  }
  node {
    input: "getitem_120"
    output: "relu_37"
    name: "node_relu_37"
    op_type: "Relu"

  }
  node {
    input: "relu_37"
    input: "img_backbone.layer3.5.conv2.weight"
    input: "img_backbone.layer3.5.conv2.weight_bias"
    output: "getitem_123"
    name: "node_Conv_4955"
    op_type: "Conv"
    attribute {
      name: "group"
      i: 1
      type: INT
    }
    attribute {
      name: "pads"
      ints: 1
      ints: 1
      ints: 1
      ints: 1
      type: INTS
    }
    attribute {
      name: "auto_pad"
      s: "NOTSET"
      type: STRING
    }
    attribute {
      name: "strides"
      ints: 1
      ints: 1
      type: INTS
    }
    attribute {
      name: "dilations"
      ints: 1
      ints: 1
      type: INTS
    }

  }
  node {
    input: "getitem_123"
    output: "relu_38"
    name: "node_relu_38"
    op_type: "Relu"

  }
  node {
    input: "relu_38"
    input: "img_backbone.layer3.5.conv3.weight"
    input: "img_backbone.layer3.5.conv3.weight_bias"
    output: "getitem_126"
    name: "node_Conv_4957"
    op_type: "Conv"
    attribute {
      name: "group"
      i: 1
      type: INT
    }
    attribute {
      name: "pads"
      ints: 0
      ints: 0
      ints: 0
      ints: 0
      type: INTS
    }
    attribute {
      name: "auto_pad"
      s: "NOTSET"
      type: STRING
    }
    attribute {
      name: "strides"
      ints: 1
      ints: 1
      type: INTS
    }
    attribute {
      name: "dilations"
      ints: 1
      ints: 1
      type: INTS
    }

  }
  node {
    input: "getitem_126"
    input: "relu_36"
    output: "add_12"
    name: "node_add_12"
    op_type: "Add"

  }
  node {
    input: "add_12"
    output: "relu_39"
    name: "node_relu_39"
    op_type: "Relu"

  }
  node {
    input: "relu_39"
    input: "img_backbone.layer4.0.conv1.weight"
    input: "img_backbone.layer4.0.conv1.weight_bias"
    output: "getitem_129"
    name: "node_Conv_4959"
    op_type: "Conv"
    attribute {
      name: "group"
      i: 1
      type: INT
    }
    attribute {
      name: "pads"
      ints: 0
      ints: 0
      ints: 0
      ints: 0
      type: INTS
    }
    attribute {
      name: "auto_pad"
      s: "NOTSET"
      type: STRING
    }
    attribute {
      name: "strides"
      ints: 1
      ints: 1
      type: INTS
    }
    attribute {
      name: "dilations"
      ints: 1
      ints: 1
      type: INTS
    }

  }
  node {
    input: "getitem_129"
    output: "relu_40"
    name: "node_relu_40"
    op_type: "Relu"

  }
  node {
    input: "relu_40"
    input: "img_backbone.layer4.0.conv2.weight"
    input: "img_backbone.layer4.0.conv2.weight_bias"
    output: "getitem_132"
    name: "node_Conv_4961"
    op_type: "Conv"
    attribute {
      name: "group"
      i: 1
      type: INT
    }
    attribute {
      name: "pads"
      ints: 1
      ints: 1
      ints: 1
      ints: 1
      type: INTS
    }
    attribute {
      name: "auto_pad"
      s: "NOTSET"
      type: STRING
    }
    attribute {
      name: "strides"
      ints: 2
      ints: 2
      type: INTS
    }
    attribute {
      name: "dilations"
      ints: 1
      ints: 1
      type: INTS
    }

  }
  node {
    input: "getitem_132"
    output: "relu_41"
    name: "node_relu_41"
    op_type: "Relu"

  }
  node {
    input: "relu_41"
    input: "img_backbone.layer4.0.conv3.weight"
    input: "img_backbone.layer4.0.conv3.weight_bias"
    output: "getitem_135"
    name: "node_Conv_4963"
    op_type: "Conv"
    attribute {
      name: "group"
      i: 1
      type: INT
    }
    attribute {
      name: "pads"
      ints: 0
      ints: 0
      ints: 0
      ints: 0
      type: INTS
    }
    attribute {
      name: "auto_pad"
      s: "NOTSET"
      type: STRING
    }
    attribute {
      name: "strides"
      ints: 1
      ints: 1
      type: INTS
    }
    attribute {
      name: "dilations"
      ints: 1
      ints: 1
      type: INTS
    }

  }
  node {
    input: "relu_39"
    input: "img_backbone.layer4.0.downsample.0.weight"
    input: "img_backbone.layer4.0.downsample.0.weight_bias"
    output: "getitem_138"
    name: "node_Conv_4965"
    op_type: "Conv"
    attribute {
      name: "group"
      i: 1
      type: INT
    }
    attribute {
      name: "pads"
      ints: 0
      ints: 0
      ints: 0
      ints: 0
      type: INTS
    }
    attribute {
      name: "auto_pad"
      s: "NOTSET"
      type: STRING
    }
    attribute {
      name: "strides"
      ints: 2
      ints: 2
      type: INTS
    }
    attribute {
      name: "dilations"
      ints: 1
      ints: 1
      type: INTS
    }

  }
  node {
    input: "getitem_135"
    input: "getitem_138"
    output: "add_13"
    name: "node_add_13"
    op_type: "Add"

  }
  node {
    input: "add_13"
    output: "relu_42"
    name: "node_relu_42"
    op_type: "Relu"

  }
  node {
    input: "relu_42"
    input: "img_backbone.layer4.1.conv1.weight"
    input: "img_backbone.layer4.1.conv1.weight_bias"
    output: "getitem_141"
    name: "node_Conv_4967"
    op_type: "Conv"
    attribute {
      name: "group"
      i: 1
      type: INT
    }
    attribute {
      name: "pads"
      ints: 0
      ints: 0
      ints: 0
      ints: 0
      type: INTS
    }
    attribute {
      name: "auto_pad"
      s: "NOTSET"
      type: STRING
    }
    attribute {
      name: "strides"
      ints: 1
      ints: 1
      type: INTS
    }
    attribute {
      name: "dilations"
      ints: 1
      ints: 1
      type: INTS
    }

  }
  node {
    input: "getitem_141"
    output: "relu_43"
    name: "node_relu_43"
    op_type: "Relu"

  }
  node {
    input: "relu_43"
    input: "img_backbone.layer4.1.conv2.weight"
    input: "img_backbone.layer4.1.conv2.weight_bias"
    output: "getitem_144"
    name: "node_Conv_4969"
    op_type: "Conv"
    attribute {
      name: "group"
      i: 1
      type: INT
    }
    attribute {
      name: "pads"
      ints: 1
      ints: 1
      ints: 1
      ints: 1
      type: INTS
    }
    attribute {
      name: "auto_pad"
      s: "NOTSET"
      type: STRING
    }
    attribute {
      name: "strides"
      ints: 1
      ints: 1
      type: INTS
    }
    attribute {
      name: "dilations"
      ints: 1
      ints: 1
      type: INTS
    }

  }
  node {
    input: "getitem_144"
    output: "relu_44"
    name: "node_relu_44"
    op_type: "Relu"

  }
  node {
    input: "relu_44"
    input: "img_backbone.layer4.1.conv3.weight"
    input: "img_backbone.layer4.1.conv3.weight_bias"
    output: "getitem_147"
    name: "node_Conv_4971"
    op_type: "Conv"
    attribute {
      name: "group"
      i: 1
      type: INT
    }
    attribute {
      name: "pads"
      ints: 0
      ints: 0
      ints: 0
      ints: 0
      type: INTS
    }
    attribute {
      name: "auto_pad"
      s: "NOTSET"
      type: STRING
    }
    attribute {
      name: "strides"
      ints: 1
      ints: 1
      type: INTS
    }
    attribute {
      name: "dilations"
      ints: 1
      ints: 1
      type: INTS
    }

  }
  node {
    input: "getitem_147"
    input: "relu_42"
    output: "add_14"
    name: "node_add_14"
    op_type: "Add"

  }
  node {
    input: "add_14"
    output: "relu_45"
    name: "node_relu_45"
    op_type: "Relu"

  }
  node {
    input: "relu_45"
    input: "img_backbone.layer4.2.conv1.weight"
    input: "img_backbone.layer4.2.conv1.weight_bias"
    output: "getitem_150"
    name: "node_Conv_4973"
    op_type: "Conv"
    attribute {
      name: "group"
      i: 1
      type: INT
    }
    attribute {
      name: "pads"
      ints: 0
      ints: 0
      ints: 0
      ints: 0
      type: INTS
    }
    attribute {
      name: "auto_pad"
      s: "NOTSET"
      type: STRING
    }
    attribute {
      name: "strides"
      ints: 1
      ints: 1
      type: INTS
    }
    attribute {
      name: "dilations"
      ints: 1
      ints: 1
      type: INTS
    }

  }
  node {
    input: "getitem_150"
    output: "relu_46"
    name: "node_relu_46"
    op_type: "Relu"

  }
  node {
    input: "relu_46"
    input: "img_backbone.layer4.2.conv2.weight"
    input: "img_backbone.layer4.2.conv2.weight_bias"
    output: "getitem_153"
    name: "node_Conv_4975"
    op_type: "Conv"
    attribute {
      name: "group"
      i: 1
      type: INT
    }
    attribute {
      name: "pads"
      ints: 1
      ints: 1
      ints: 1
      ints: 1
      type: INTS
    }
    attribute {
      name: "auto_pad"
      s: "NOTSET"
      type: STRING
    }
    attribute {
      name: "strides"
      ints: 1
      ints: 1
      type: INTS
    }
    attribute {
      name: "dilations"
      ints: 1
      ints: 1
      type: INTS
    }

  }
  node {
    input: "getitem_153"
    output: "relu_47"
    name: "node_relu_47"
    op_type: "Relu"

  }
  node {
    input: "relu_47"
    input: "img_backbone.layer4.2.conv3.weight"
    input: "img_backbone.layer4.2.conv3.weight_bias"
    output: "getitem_156"
    name: "node_Conv_4977"
    op_type: "Conv"
    attribute {
      name: "group"
      i: 1
      type: INT
    }
    attribute {
      name: "pads"
      ints: 0
      ints: 0
      ints: 0
      ints: 0
      type: INTS
    }
    attribute {
      name: "auto_pad"
      s: "NOTSET"
      type: STRING
    }
    attribute {
      name: "strides"
      ints: 1
      ints: 1
      type: INTS
    }
    attribute {
      name: "dilations"
      ints: 1
      ints: 1
      type: INTS
    }

  }
  node {
    input: "getitem_156"
    input: "relu_45"
    output: "add_15"
    name: "node_add_15"
    op_type: "Add"

  }
  node {
    input: "add_15"
    output: "relu_48"
    name: "node_relu_48"
    op_type: "Relu"

  }
  node {
    input: "relu_48"
    input: "img_neck.lateral_convs.0.conv.weight"
    input: "img_neck.lateral_convs.0.conv.bias"
    output: "conv2d_53"
    name: "node_conv2d_53"
    op_type: "Conv"
    attribute {
      name: "group"
      i: 1
      type: INT
    }
    attribute {
      name: "pads"
      ints: 0
      ints: 0
      ints: 0
      ints: 0
      type: INTS
    }
    attribute {
      name: "auto_pad"
      s: "NOTSET"
      type: STRING
    }
    attribute {
      name: "strides"
      ints: 1
      ints: 1
      type: INTS
    }
    attribute {
      name: "dilations"
      ints: 1
      ints: 1
      type: INTS
    }

  }
  node {
    input: "conv2d_53"
    input: "img_neck.fpn_convs.0.conv.weight"
    input: "img_neck.fpn_convs.0.conv.bias"
    output: "conv2d_54"
    name: "node_conv2d_54"
    op_type: "Conv"
    attribute {
      name: "group"
      i: 1
      type: INT
    }
    attribute {
      name: "pads"
      ints: 1
      ints: 1
      ints: 1
      ints: 1
      type: INTS
    }
    attribute {
      name: "auto_pad"
      s: "NOTSET"
      type: STRING
    }
    attribute {
      name: "strides"
      ints: 1
      ints: 1
      type: INTS
    }
    attribute {
      name: "dilations"
      ints: 1
      ints: 1
      type: INTS
    }

  }
  node {
    input: "pts_bbox_head.bev_embedding.weight"
    input: "val_850"
    output: "unsqueeze"
    name: "node_unsqueeze"
    op_type: "Unsqueeze"

  }
  node {
    input: "unsqueeze"
    input: "val_598"
    output: "expand"
    name: "node_expand"
    op_type: "Expand"

  }
  node {
    input: "unsqueeze_1"
    input: "val_608"
    output: "expand_1"
    name: "node_expand_1"
    op_type: "Expand"

  }
  node {
    input: "unsqueeze_2"
    input: "val_614"
    output: "expand_2"
    name: "node_expand_2"
    op_type: "Expand"

  }
  node {
    input: "expand_1"
    input: "expand_2"
    output: "cat"
    name: "node_cat"
    op_type: "Concat"
    attribute {
      name: "axis"
      i: -1
      type: INT
    }

  }
  node {
    input: "cat"
    input: "val_619"
    output: "view_1"
    name: "node_view_1"
    op_type: "Reshape"
    attribute {
      name: "allowzero"
      i: 1
      type: INT
    }

  }
  node {
    input: "view_1"
    input: "val_598"
    output: "expand_3"
    name: "node_expand_3"
    op_type: "Expand"

  }
  node {
    input: "conv2d_54"
    input: "val_629"
    output: "view_2"
    name: "node_view_2"
    op_type: "Reshape"
    attribute {
      name: "allowzero"
      i: 1
      type: INT
    }

  }
  node {
    input: "view_2"
    output: "permute"
    name: "node_permute"
    op_type: "Transpose"
    attribute {
      name: "perm"
      ints: 0
      ints: 2
      ints: 1
      type: INTS
    }

  }
  node {
    input: "permute"
    input: "unsqueeze_4"
    output: "add_16"
    name: "node_add_16"
    op_type: "Add"

  }
  node {
    input: "add_16"
    input: "val_636"
    output: "view_3"
    name: "node_view_3"
    op_type: "Reshape"
    attribute {
      name: "allowzero"
      i: 1
      type: INT
    }

  }
  node {
    input: "view_3"
    input: "unsqueeze_6"
    output: "add_17"
    name: "node_add_17"
    op_type: "Add"

  }
  node {
    input: "add_17"
    input: "val_642"
    output: "view_4"
    name: "node_view_4"
    op_type: "Reshape"
    attribute {
      name: "allowzero"
      i: 1
      type: INT
    }

  }
  node {
    input: "relu_49"
    input: "pts_bbox_head.transformer.can_bus_mlp.2.weight"
    input: "pts_bbox_head.transformer.can_bus_mlp.2.bias"
    output: "linear_1"
    name: "node_linear_1"
    op_type: "Gemm"
    attribute {
      name: "beta"
      f: 1
      type: FLOAT
    }
    attribute {
      name: "transB"
      i: 1
      type: INT
    }
    attribute {
      name: "alpha"
      f: 1
      type: FLOAT
    }
    attribute {
      name: "transA"
      i: 0
      type: INT
    }

  }
  node {
    input: "linear_1"
    input: "pts_bbox_head.transformer.can_bus_mlp.norm.weight"
    input: "pts_bbox_head.transformer.can_bus_mlp.norm.bias"
    output: "layer_norm"
    name: "node_layer_norm"
    op_type: "LayerNormalization"
    attribute {
      name: "stash_type"
      i: 1
      type: INT
    }
    attribute {
      name: "epsilon"
      f: 1e-05
      type: FLOAT
    }
    attribute {
      name: "axis"
      i: -1
      type: INT
    }

  }
  node {
    input: "layer_norm"
    input: "val_853"
    output: "unsqueeze_7"
    name: "node_unsqueeze_7"
    op_type: "Unsqueeze"

  }
  node {
    input: "expand"
    input: "unsqueeze_7"
    output: "add_18"
    name: "node_add_18"
    op_type: "Add"

  }
  node {
    input: "expand_7"
    input: "val_757"
    output: "div_2"
    name: "node_div_2"
    op_type: "Div"

  }
  node {
    input: "expand_8"
    input: "scalar_tensor_default_2"
    output: "div_3"
    name: "node_div_3"
    op_type: "Div"

  }
  node {
    input: "expand_9"
    input: "scalar_tensor_default_2"
    output: "div_4"
    name: "node_div_4"
    op_type: "Div"

  }
  node {
    input: "div_3"
    input: "val_818"
    output: "val_819"
    name: "node_Unsqueeze_816"
    op_type: "Unsqueeze"

  }
  node {
    input: "div_4"
    input: "val_818"
    output: "val_821"
    name: "node_Unsqueeze_818"
    op_type: "Unsqueeze"

  }
  node {
    input: "div_2"
    input: "val_818"
    output: "val_823"
    name: "node_Unsqueeze_820"
    op_type: "Unsqueeze"

  }
  node {
    input: "val_819"
    input: "val_821"
    input: "val_823"
    output: "stack_1"
    name: "node_stack_1"
    op_type: "Concat"
    attribute {
      name: "axis"
      i: -1
      type: INT
    }

  }
  node {
    input: "stack_1"
    output: "permute_1"
    name: "node_permute_1"
    op_type: "Transpose"
    attribute {
      name: "perm"
      ints: 0
      ints: 3
      ints: 1
      ints: 2
      type: INTS
    }

  }
  node {
    input: "permute_1"
    input: "val_828"
    output: "view_10"
    name: "node_view_10"
    op_type: "Reshape"
    attribute {
      name: "allowzero"
      i: 1
      type: INT
    }

  }
  node {
    input: "view_10"
    output: "permute_2"
    name: "node_permute_2"
    op_type: "Transpose"
    attribute {
      name: "perm"
      ints: 0
      ints: 2
      ints: 1
      type: INTS
    }

  }
  node {
    input: "permute_2"
    input: "val_853"
    output: "unsqueeze_10"
    name: "node_unsqueeze_10"
    op_type: "Unsqueeze"

  }
  node {
    input: "unsqueeze_10"
    input: "val_834"
    output: "expand_10"
    name: "node_expand_10"
    op_type: "Expand"

  }
  node {
    input: "expand_10"
    input: "val_850"
    input: "val_853"
    input: "val_857"
    input: "val_853"
    output: "slice_1"
    name: "node_slice_1"
    op_type: "Slice"

  }
  node {
    input: "slice_1"
    input: "val_859"
    output: "mul_2"
    name: "node_mul_2"
    op_type: "Mul"

  }
  node {
    input: "mul_2"
    input: "val_860"
    output: "copy_2"
    name: "node_copy_2"
    op_type: "Add"

  }
  node {
    input: "copy_2"
    output: "val_881"
    name: "node_Transpose_878"
    op_type: "Transpose"
    attribute {
      name: "perm"
      ints: 3
      ints: 1
      ints: 2
      ints: 0
      type: INTS
    }

  }
  node {
    input: "expand_10"
    output: "val_882"
    name: "node_Transpose_879"
    op_type: "Transpose"
    attribute {
      name: "perm"
      ints: 3
      ints: 1
      ints: 2
      ints: 0
      type: INTS
    }

  }
  node {
    input: "val_882"
    input: "val_880"
    input: "val_881"
    output: "val_883"
    name: "node_ScatterND_880"
    op_type: "ScatterND"
    attribute {
      name: "reduction"
      s: "none"
      type: STRING
    }

  }
  node {
    input: "val_883"
    output: "slice_scatter"
    name: "node_slice_scatter"
    op_type: "Transpose"
    attribute {
      name: "perm"
      ints: 3
      ints: 1
      ints: 2
      ints: 0
      type: INTS
    }

  }
  node {
    input: "slice_scatter"
    input: "val_853"
    input: "val_890"
    input: "val_857"
    input: "val_853"
    output: "slice_5"
    name: "node_slice_5"
    op_type: "Slice"

  }
  node {
    input: "slice_5"
    input: "val_859"
    output: "mul_3"
    name: "node_mul_3"
    op_type: "Mul"

  }
  node {
    input: "mul_3"
    input: "val_860"
    output: "copy_3"
    name: "node_copy_3"
    op_type: "Add"

  }
  node {
    input: "copy_3"
    output: "val_914"
    name: "node_Transpose_911"
    op_type: "Transpose"
    attribute {
      name: "perm"
      ints: 3
      ints: 1
      ints: 2
      ints: 0
      type: INTS
    }

  }
  node {
    input: "slice_scatter"
    output: "val_915"
    name: "node_Transpose_912"
    op_type: "Transpose"
    attribute {
      name: "perm"
      ints: 3
      ints: 1
      ints: 2
      ints: 0
      type: INTS
    }

  }
  node {
    input: "val_915"
    input: "val_913"
    input: "val_914"
    output: "val_916"
    name: "node_ScatterND_913"
    op_type: "ScatterND"
    attribute {
      name: "reduction"
      s: "none"
      type: STRING
    }

  }
  node {
    input: "val_916"
    output: "slice_scatter_1"
    name: "node_slice_scatter_1"
    op_type: "Transpose"
    attribute {
      name: "perm"
      ints: 3
      ints: 1
      ints: 2
      ints: 0
      type: INTS
    }

  }
  node {
    input: "slice_scatter_1"
    input: "val_890"
    input: "val_857"
    input: "val_857"
    input: "val_853"
    output: "slice_10"
    name: "node_slice_10"
    op_type: "Slice"

  }
  node {
    input: "slice_10"
    input: "val_757"
    output: "mul_4"
    name: "node_mul_4"
    op_type: "Mul"

  }
  node {
    input: "mul_4"
    input: "val_927"
    output: "copy_4"
    name: "node_copy_4"
    op_type: "Add"

  }
  node {
    input: "copy_4"
    output: "val_947"
    name: "node_Transpose_944"
    op_type: "Transpose"
    attribute {
      name: "perm"
      ints: 3
      ints: 1
      ints: 2
      ints: 0
      type: INTS
    }

  }
  node {
    input: "slice_scatter_1"
    output: "val_948"
    name: "node_Transpose_945"
    op_type: "Transpose"
    attribute {
      name: "perm"
      ints: 3
      ints: 1
      ints: 2
      ints: 0
      type: INTS
    }

  }
  node {
    input: "val_948"
    input: "val_946"
    input: "val_947"
    output: "val_949"
    name: "node_ScatterND_946"
    op_type: "ScatterND"
    attribute {
      name: "reduction"
      s: "none"
      type: STRING
    }

  }
  node {
    input: "val_949"
    output: "slice_scatter_2"
    name: "node_slice_scatter_2"
    op_type: "Transpose"
    attribute {
      name: "perm"
      ints: 3
      ints: 1
      ints: 2
      ints: 0
      type: INTS
    }

  }
  node {
    input: "slice_scatter_2"
    input: "ones_like"
    output: "cat_2"
    name: "node_cat_2"
    op_type: "Concat"
    attribute {
      name: "axis"
      i: -1
      type: INT
    }

  }
  node {
    input: "cat_2"
    input: "val_968"
    output: "view_11"
    name: "node_view_11"
    op_type: "Reshape"
    attribute {
      name: "allowzero"
      i: 1
      type: INT
    }

  }
  node {
    input: "view_11"
    input: "val_818"
    output: "unsqueeze_13"
    name: "node_unsqueeze_13"
    op_type: "Unsqueeze"

  }
  node {
    input: "unsqueeze_13"
    input: "val_976"
    output: "expand_12"
    name: "node_expand_12"
    op_type: "Expand"

  }
  node {
    input: "view_14"
    input: "val_998"
    output: "expand_17"
    name: "node_expand_17"
    op_type: "Expand"

  }
  node {
    input: "expand_17"
    input: "expand_12"
    output: "matmul"
    name: "node_matmul"
    op_type: "MatMul"

  }
  node {
    input: "matmul"
    input: "val_818"
    output: "squeeze"
    name: "node_squeeze"
    op_type: "Squeeze"

  }
  node {
    input: "squeeze"
    input: "val_890"
    input: "val_857"
    input: "val_1007"
    input: "val_853"
    output: "slice_16"
    name: "node_slice_16"
    op_type: "Slice"

  }
  node {
    input: "slice_16"
    input: "val_1029"
    output: "gt"
    name: "node_gt"
    op_type: "Greater"

  }
  node {
    input: "squeeze"
    input: "val_850"
    input: "val_890"
    input: "val_1007"
    input: "val_853"
    output: "slice_17"
    name: "node_slice_17"
    op_type: "Slice"

  }
  node {
    input: "slice_16"
    input: "val_1029"
    output: "clamp"
    name: "node_clamp"
    op_type: "Clip"

  }
  node {
    input: "slice_17"
    input: "clamp"
    output: "div_5"
    name: "node_div_5"
    op_type: "Div"

  }
  node {
    input: "div_5"
    input: "val_630"
    output: "select_12"
    name: "node_select_12"
    op_type: "Gather"
    attribute {
      name: "axis"
      i: 4
      type: INT
    }

  }
  node {
    input: "select_12"
    input: "scalar_tensor_default_4"
    output: "div_6"
    name: "node_div_6"
    op_type: "Div"

  }
  node {
    input: "div_6"
    input: "val_1007"
    output: "val_1032"
    name: "node_Unsqueeze_1029"
    op_type: "Unsqueeze"

  }
  node {
    input: "div_5"
    input: "val_1034"
    input: "val_1032"
    output: "select_scatter_4"
    name: "node_select_scatter_4"
    op_type: "ScatterElements"
    attribute {
      name: "reduction"
      s: "none"
      type: STRING
    }
    attribute {
      name: "axis"
      i: 4
      type: INT
    }

  }
  node {
    input: "select_scatter_4"
    input: "val_630"
    output: "copy_5"
    name: "node_copy_5"
    op_type: "Gather"
    attribute {
      name: "axis"
      i: 4
      type: INT
    }

  }
  node {
    input: "copy_5"
    input: "val_1007"
    output: "val_1035"
    name: "node_Unsqueeze_1032"
    op_type: "Unsqueeze"

  }
  node {
    input: "select_scatter_4"
    input: "val_1037"
    input: "val_1035"
    output: "select_scatter_5"
    name: "node_select_scatter_5"
    op_type: "ScatterElements"
    attribute {
      name: "reduction"
      s: "none"
      type: STRING
    }
    attribute {
      name: "axis"
      i: 4
      type: INT
    }

  }
  node {
    input: "select_scatter_5"
    input: "val_656"
    output: "select_18"
    name: "node_select_18"
    op_type: "Gather"
    attribute {
      name: "axis"
      i: 4
      type: INT
    }

  }
  node {
    input: "select_18"
    input: "scalar_tensor_default_5"
    output: "div_7"
    name: "node_div_7"
    op_type: "Div"

  }
  node {
    input: "div_7"
    input: "val_1007"
    output: "val_1039"
    name: "node_Unsqueeze_1036"
    op_type: "Unsqueeze"

  }
  node {
    input: "select_scatter_5"
    input: "val_1041"
    input: "val_1039"
    output: "select_scatter_6"
    name: "node_select_scatter_6"
    op_type: "ScatterElements"
    attribute {
      name: "reduction"
      s: "none"
      type: STRING
    }
    attribute {
      name: "axis"
      i: 4
      type: INT
    }

  }
  node {
    input: "select_scatter_6"
    input: "val_656"
    output: "copy_6"
    name: "node_copy_6"
    op_type: "Gather"
    attribute {
      name: "axis"
      i: 4
      type: INT
    }

  }
  node {
    input: "copy_6"
    input: "val_1007"
    output: "val_1042"
    name: "node_Unsqueeze_1039"
    op_type: "Unsqueeze"

  }
  node {
    input: "select_scatter_6"
    input: "val_1044"
    input: "val_1042"
    output: "select_scatter_7"
    name: "node_select_scatter_7"
    op_type: "ScatterElements"
    attribute {
      name: "reduction"
      s: "none"
      type: STRING
    }
    attribute {
      name: "axis"
      i: 4
      type: INT
    }

  }
  node {
    input: "select_scatter_7"
    input: "val_850"
    input: "val_853"
    input: "val_1007"
    input: "val_853"
    output: "slice_20"
    name: "node_slice_20"
    op_type: "Slice"

  }
  node {
    input: "slice_20"
    input: "val_1085"
    output: "gt_1"
    name: "node_gt_1"
    op_type: "Greater"

  }
  node {
    input: "gt"
    input: "gt_1"
    output: "bitwise_and"
    name: "node_bitwise_and"
    op_type: "And"

  }
  node {
    input: "slice_20"
    input: "scalar_tensor_default_7"
    output: "lt"
    name: "node_lt"
    op_type: "Less"

  }
  node {
    input: "bitwise_and"
    input: "lt"
    output: "bitwise_and_1"
    name: "node_bitwise_and_1"
    op_type: "And"

  }
  node {
    input: "select_scatter_7"
    input: "val_853"
    input: "val_890"
    input: "val_1007"
    input: "val_853"
    output: "slice_24"
    name: "node_slice_24"
    op_type: "Slice"

  }
  node {
    input: "slice_24"
    input: "val_1085"
    output: "gt_2"
    name: "node_gt_2"
    op_type: "Greater"

  }
  node {
    input: "bitwise_and_1"
    input: "gt_2"
    output: "bitwise_and_2"
    name: "node_bitwise_and_2"
    op_type: "And"

  }
  node {
    input: "slice_24"
    input: "scalar_tensor_default_7"
    output: "lt_1"
    name: "node_lt_1"
    op_type: "Less"

  }
  node {
    input: "bitwise_and_2"
    input: "lt_1"
    output: "bitwise_and_3"
    name: "node_bitwise_and_3"
    op_type: "And"

  }
  node {
    input: "bitwise_and_3"
    input: "val_818"
    output: "squeeze_1"
    name: "node_squeeze_1"
    op_type: "Squeeze"

  }
  node {
    input: "squeeze_1"
    output: "permute_4"
    name: "node_permute_4"
    op_type: "Transpose"
    attribute {
      name: "perm"
      ints: 2
      ints: 1
      ints: 3
      ints: 0
      type: INTS
    }

  }
  node {
    input: "add_18"
    input: "expand_3"
    output: "add_22"
    name: "node_add_22"
    op_type: "Add"

  }
  node {
    input: "val_1085"
    input: "val_619"
    output: "zeros_like"
    name: "node_zeros_like"
    op_type: "Expand"

  }
  node {
    input: "add_22"
    input: "zeros_like"
    output: "cat_3"
    name: "node_cat_3"
    op_type: "Concat"
    attribute {
      name: "axis"
      i: -1
      type: INT
    }

  }
  node {
    input: "add_18"
    input: "val_1087"
    output: "val_1088"
    name: "node_MatMul_1085"
    op_type: "MatMul"

  }
  node {
    input: "val_1088"
    input: "pts_bbox_head.transformer.encoder.layers.0.attentions.0.value_proj.bias"
    output: "linear_2"
    name: "node_linear_2"
    op_type: "Add"

  }
  node {
    input: "linear_2"
    input: "val_1094"
    output: "view_15"
    name: "node_view_15"
    op_type: "Reshape"
    attribute {
      name: "allowzero"
      i: 1
      type: INT
    }

  }
  node {
    input: "cat_3"
    input: "val_1095"
    output: "val_1096"
    name: "node_MatMul_1093"
    op_type: "MatMul"

  }
  node {
    input: "val_1096"
    input: "pts_bbox_head.transformer.encoder.layers.0.attentions.0.sampling_offsets.bias"
    output: "linear_3"
    name: "node_linear_3"
    op_type: "Add"

  }
  node {
    input: "linear_3"
    input: "val_1104"
    output: "view_16"
    name: "node_view_16"
    op_type: "Reshape"
    attribute {
      name: "allowzero"
      i: 1
      type: INT
    }

  }
  node {
    input: "cat_3"
    input: "val_1105"
    output: "val_1106"
    name: "node_MatMul_1103"
    op_type: "MatMul"

  }
  node {
    input: "val_1106"
    input: "pts_bbox_head.transformer.encoder.layers.0.attentions.0.attention_weights.bias"
    output: "linear_4"
    name: "node_linear_4"
    op_type: "Add"

  }
  node {
    input: "linear_4"
    input: "val_1112"
    output: "view_17"
    name: "node_view_17"
    op_type: "Reshape"
    attribute {
      name: "allowzero"
      i: 1
      type: INT
    }

  }
  node {
    input: "view_17"
    output: "softmax"
    name: "node_softmax"
    op_type: "Softmax"
    attribute {
      name: "axis"
      i: -1
      type: INT
    }

  }
  node {
    input: "softmax"
    input: "val_1119"
    output: "view_18"
    name: "node_view_18"
    op_type: "Reshape"
    attribute {
      name: "allowzero"
      i: 1
      type: INT
    }

  }
  node {
    input: "view_16"
    input: "unsqueeze_20"
    output: "div_8"
    name: "node_div_8"
    op_type: "Div"

  }
  node {
    input: "unsqueeze_22"
    input: "div_8"
    output: "add_23"
    name: "node_add_23"
    op_type: "Add"

  }
  node {
    input: "view_15"
    input: "val_1123"
    output: "split_with_sizes_split_0"
    name: "node_Split_4475"
    op_type: "Split"
    attribute {
      name: "axis"
      i: 1
      type: INT
    }
  }
  node {
    input: "add_23"
    input: "scalar_tensor_default_6"
    output: "mul_5"
    name: "node_mul_5"
    op_type: "Mul"

  }
  node {
    input: "mul_5"
    input: "scalar_tensor_default_7"
    output: "sub"
    name: "node_sub"
    op_type: "Sub"

  }
  node {
    input: "split_with_sizes_split_0"
    output: "permute_5"
    name: "node_permute_5"
    op_type: "Transpose"
    attribute {
      name: "perm"
      ints: 0
      ints: 2
      ints: 3
      ints: 1
      type: INTS
    }

  }
  node {
    input: "permute_5"
    input: "val_1129"
    output: "view_19"
    name: "node_view_19"
    op_type: "Reshape"
    attribute {
      name: "allowzero"
      i: 1
      type: INT
    }

  }
  node {
    input: "sub"
    input: "val_630"
    output: "select_23"
    name: "node_select_23"
    op_type: "Gather"
    attribute {
      name: "axis"
      i: 3
      type: INT
    }

  }
  node {
    input: "select_23"
    output: "permute_6"
    name: "node_permute_6"
    op_type: "Transpose"
    attribute {
      name: "perm"
      ints: 0
      ints: 2
      ints: 1
      ints: 3
      ints: 4
      type: INTS
    }

  }
  node {
    input: "permute_6"
    input: "val_1135"
    output: "view_20"
    name: "node_view_20"
    op_type: "Reshape"
    attribute {
      name: "allowzero"
      i: 1
      type: INT
    }

  }
  node {
    input: "view_19"
    input: "view_20"
    output: "grid_sampler"
    name: "node_grid_sampler"
    op_type: "GridSample"
    attribute {
      name: "align_corners"
      i: 0
      type: INT
    }
    attribute {
      name: "padding_mode"
      s: "zeros"
      type: STRING
    }
    attribute {
      name: "mode"
      s: "bilinear"
      type: STRING
    }

  }
  node {
    input: "view_18"
    output: "permute_7"
    name: "node_permute_7"
    op_type: "Transpose"
    attribute {
      name: "perm"
      ints: 0
      ints: 2
      ints: 1
      ints: 3
      ints: 4
      type: INTS
    }

  }
  node {
    input: "permute_7"
    input: "val_1141"
    output: "view_21"
    name: "node_view_21"
    op_type: "Reshape"
    attribute {
      name: "allowzero"
      i: 1
      type: INT
    }

  }
  node {
    input: "grid_sampler"
    input: "val_818"
    output: "val_1143"
    name: "node_Unsqueeze_1140"
    op_type: "Unsqueeze"

  }
  node {
    input: "val_1143"
    input: "val_1149"
    output: "view_22"
    name: "node_view_22"
    op_type: "Reshape"
    attribute {
      name: "allowzero"
      i: 1
      type: INT
    }

  }
  node {
    input: "view_22"
    input: "view_21"
    output: "mul_6"
    name: "node_mul_6"
    op_type: "Mul"

  }
  node {
    input: "mul_6"
    input: "val_818"
    output: "sum_1"
    name: "node_sum_1"
    op_type: "ReduceSum"
    attribute {
      name: "noop_with_empty_axes"
      i: 0
      type: INT
    }
    attribute {
      name: "keepdims"
      i: 0
      type: INT
    }

  }
  node {
    input: "sum_1"
    input: "val_1155"
    output: "view_23"
    name: "node_view_23"
    op_type: "Reshape"
    attribute {
      name: "allowzero"
      i: 1
      type: INT
    }

  }
  node {
    input: "view_23"
    output: "permute_8"
    name: "node_permute_8"
    op_type: "Transpose"
    attribute {
      name: "perm"
      ints: 0
      ints: 2
      ints: 1
      type: INTS
    }

  }
  node {
    input: "permute_8"
    input: "val_1156"
    output: "val_1157"
    name: "node_MatMul_1154"
    op_type: "MatMul"

  }
  node {
    input: "val_1157"
    input: "pts_bbox_head.transformer.encoder.layers.0.attentions.0.output_proj.bias"
    output: "linear_5"
    name: "node_linear_5"
    op_type: "Add"

  }
  node {
    input: "add_18"
    input: "linear_5"
    output: "add_24"
    name: "node_add_24"
    op_type: "Add"

  }
  node {
    input: "add_24"
    input: "pts_bbox_head.transformer.encoder.layers.0.norms.0.weight"
    input: "pts_bbox_head.transformer.encoder.layers.0.norms.0.bias"
    output: "layer_norm_1"
    name: "node_layer_norm_1"
    op_type: "LayerNormalization"
    attribute {
      name: "stash_type"
      i: 1
      type: INT
    }
    attribute {
      name: "epsilon"
      f: 1e-05
      type: FLOAT
    }
    attribute {
      name: "axis"
      i: -1
      type: INT
    }

  }
  node {
    input: "layer_norm_1"
    input: "expand_3"
    output: "add_25"
    name: "node_add_25"
    op_type: "Add"

  }
  node {
    input: "permute_4"
    output: "convert_element_type_default"
    name: "node_convert_element_type_default"
    op_type: "Cast"
    attribute {
      name: "to"
      i: 7
      type: INT
    }

  }
  node {
    input: "convert_element_type_default"
    input: "val_818"
    output: "sum_2"
    name: "node_sum_2"
    op_type: "ReduceSum"
    attribute {
      name: "noop_with_empty_axes"
      i: 0
      type: INT
    }
    attribute {
      name: "keepdims"
      i: 0
      type: INT
    }

  }
  node {
    input: "sum_2"
    input: "val_630"
    output: "gt_3"
    name: "node_gt_3"
    op_type: "Greater"

  }
  node {
    input: "view_4"
    input: "val_850"
    input: "val_1169"
    input: "val_850"
    input: "val_1176"
    output: "slice_27"
    name: "node_slice_27"
    op_type: "Slice"

  }
  node {
    input: "pts_bbox_head.transformer.encoder.layers.0.attentions.1.deformable_attention.value_proj.weight"
    output: "val_1177"
    name: "node_Transpose_1172"
    op_type: "Transpose"
    attribute {
      name: "perm"
      ints: 1
      ints: 0
      type: INTS
    }

  }
  node {
    input: "slice_27"
    input: "val_1177"
    output: "val_1178"
    name: "node_MatMul_1173"
    op_type: "MatMul"

  }
  node {
    input: "val_1178"
    input: "pts_bbox_head.transformer.encoder.layers.0.attentions.1.deformable_attention.value_proj.bias"
    output: "linear_6"
    name: "node_linear_6"
    op_type: "Add"

  }
  node {
    input: "linear_6"
    input: "val_1094"
    output: "view_24"
    name: "node_view_24"
    op_type: "Reshape"
    attribute {
      name: "allowzero"
      i: 1
      type: INT
    }

  }
  node {
    input: "pts_bbox_head.transformer.encoder.layers.0.attentions.1.deformable_attention.sampling_offsets.weight"
    output: "val_1185"
    name: "node_Transpose_1180"
    op_type: "Transpose"
    attribute {
      name: "perm"
      ints: 1
      ints: 0
      type: INTS
    }

  }
  node {
    input: "add_25"
    input: "val_1185"
    output: "val_1186"
    name: "node_MatMul_1181"
    op_type: "MatMul"

  }
  node {
    input: "val_1186"
    input: "pts_bbox_head.transformer.encoder.layers.0.attentions.1.deformable_attention.sampling_offsets.bias"
    output: "linear_7"
    name: "node_linear_7"
    op_type: "Add"

  }
  node {
    input: "linear_7"
    input: "val_1104"
    output: "view_25"
    name: "node_view_25"
    op_type: "Reshape"
    attribute {
      name: "allowzero"
      i: 1
      type: INT
    }

  }
  node {
    input: "pts_bbox_head.transformer.encoder.layers.0.attentions.1.deformable_attention.attention_weights.weight"
    output: "val_1195"
    name: "node_Transpose_1190"
    op_type: "Transpose"
    attribute {
      name: "perm"
      ints: 1
      ints: 0
      type: INTS
    }

  }
  node {
    input: "add_25"
    input: "val_1195"
    output: "val_1196"
    name: "node_MatMul_1191"
    op_type: "MatMul"

  }
  node {
    input: "val_1196"
    input: "pts_bbox_head.transformer.encoder.layers.0.attentions.1.deformable_attention.attention_weights.bias"
    output: "linear_8"
    name: "node_linear_8"
    op_type: "Add"

  }
  node {
    input: "linear_8"
    input: "val_1112"
    output: "view_26"
    name: "node_view_26"
    op_type: "Reshape"
    attribute {
      name: "allowzero"
      i: 1
      type: INT
    }

  }
  node {
    input: "view_26"
    output: "softmax_1"
    name: "node_softmax_1"
    op_type: "Softmax"
    attribute {
      name: "axis"
      i: -1
      type: INT
    }

  }
  node {
    input: "softmax_1"
    input: "val_1119"
    output: "view_27"
    name: "node_view_27"
    op_type: "Reshape"
    attribute {
      name: "allowzero"
      i: 1
      type: INT
    }

  }
  node {
    input: "view_25"
    input: "unsqueeze_26"
    output: "div_9"
    name: "node_div_9"
    op_type: "Div"

  }
  node {
    input: "div_9"
    input: "val_1221"
    output: "view_28"
    name: "node_view_28"
    op_type: "Reshape"
    attribute {
      name: "allowzero"
      i: 1
      type: INT
    }

  }
  node {
    input: "select_scatter_7"
    output: "permute_13"
    name: "node_permute_13"
    op_type: "Transpose"
    attribute {
      name: "perm"
      ints: 2
      ints: 1
      ints: 3
      ints: 0
      ints: 4
      type: INTS
    }

  }
  node {
    input: "permute_13"
    input: "val_630"
    output: "select_28"
    name: "node_select_28"
    op_type: "Gather"
    attribute {
      name: "axis"
      i: 0
      type: INT
    }

  }
  node {
    input: "select_28"
    input: "val_4307"
    output: "unsqueeze_34"
    name: "node_Unsqueeze_4979"
    op_type: "Unsqueeze"

  }
  node {
    input: "unsqueeze_34"
    input: "val_1007"
    output: "unsqueeze_35"
    name: "node_unsqueeze_35"
    op_type: "Unsqueeze"

  }
  node {
    input: "unsqueeze_35"
    input: "view_28"
    output: "add_26"
    name: "node_add_26"
    op_type: "Add"

  }
  node {
    input: "add_26"
    input: "val_1104"
    output: "view_29"
    name: "node_view_29"
    op_type: "Reshape"
    attribute {
      name: "allowzero"
      i: 1
      type: INT
    }

  }
  node {
    input: "view_24"
    input: "val_1231"
    output: "split_with_sizes_1_split_0"
    name: "node_Split_4485"
    op_type: "Split"
    attribute {
      name: "axis"
      i: 1
      type: INT
    }
  }
  node {
    input: "view_29"
    input: "scalar_tensor_default_6"
    output: "mul_7"
    name: "node_mul_7"
    op_type: "Mul"

  }
  node {
    input: "mul_7"
    input: "scalar_tensor_default_7"
    output: "sub_1"
    name: "node_sub_1"
    op_type: "Sub"

  }
  node {
    input: "split_with_sizes_1_split_0"
    output: "permute_14"
    name: "node_permute_14"
    op_type: "Transpose"
    attribute {
      name: "perm"
      ints: 0
      ints: 2
      ints: 3
      ints: 1
      type: INTS
    }

  }
  node {
    input: "permute_14"
    input: "val_1237"
    output: "view_30"
    name: "node_view_30"
    op_type: "Reshape"
    attribute {
      name: "allowzero"
      i: 1
      type: INT
    }

  }
  node {
    input: "sub_1"
    input: "val_630"
    output: "select_29"
    name: "node_select_29"
    op_type: "Gather"
    attribute {
      name: "axis"
      i: 3
      type: INT
    }

  }
  node {
    input: "select_29"
    output: "permute_15"
    name: "node_permute_15"
    op_type: "Transpose"
    attribute {
      name: "perm"
      ints: 0
      ints: 2
      ints: 1
      ints: 3
      ints: 4
      type: INTS
    }

  }
  node {
    input: "permute_15"
    input: "val_1135"
    output: "view_31"
    name: "node_view_31"
    op_type: "Reshape"
    attribute {
      name: "allowzero"
      i: 1
      type: INT
    }

  }
  node {
    input: "view_30"
    input: "view_31"
    output: "grid_sampler_1"
    name: "node_grid_sampler_1"
    op_type: "GridSample"
    attribute {
      name: "align_corners"
      i: 0
      type: INT
    }
    attribute {
      name: "padding_mode"
      s: "zeros"
      type: STRING
    }
    attribute {
      name: "mode"
      s: "bilinear"
      type: STRING
    }

  }
  node {
    input: "view_27"
    output: "permute_16"
    name: "node_permute_16"
    op_type: "Transpose"
    attribute {
      name: "perm"
      ints: 0
      ints: 2
      ints: 1
      ints: 3
      ints: 4
      type: INTS
    }

  }
  node {
    input: "permute_16"
    input: "val_1141"
    output: "view_32"
    name: "node_view_32"
    op_type: "Reshape"
    attribute {
      name: "allowzero"
      i: 1
      type: INT
    }

  }
  node {
    input: "grid_sampler_1"
    input: "val_818"
    output: "val_1251"
    name: "node_Unsqueeze_1246"
    op_type: "Unsqueeze"

  }
  node {
    input: "val_1251"
    input: "val_1149"
    output: "view_33"
    name: "node_view_33"
    op_type: "Reshape"
    attribute {
      name: "allowzero"
      i: 1
      type: INT
    }

  }
  node {
    input: "view_33"
    input: "view_32"
    output: "mul_8"
    name: "node_mul_8"
    op_type: "Mul"

  }
  node {
    input: "mul_8"
    input: "val_818"
    output: "sum_3"
    name: "node_sum_3"
    op_type: "ReduceSum"
    attribute {
      name: "noop_with_empty_axes"
      i: 0
      type: INT
    }
    attribute {
      name: "keepdims"
      i: 0
      type: INT
    }

  }
  node {
    input: "sum_3"
    input: "val_1155"
    output: "view_34"
    name: "node_view_34"
    op_type: "Reshape"
    attribute {
      name: "allowzero"
      i: 1
      type: INT
    }

  }
  node {
    input: "view_34"
    output: "permute_17"
    name: "node_permute_17"
    op_type: "Transpose"
    attribute {
      name: "perm"
      ints: 0
      ints: 2
      ints: 1
      type: INTS
    }

  }
  node {
    input: "gt_3"
    input: "val_630"
    output: "select_30"
    name: "node_select_30"
    op_type: "Gather"
    attribute {
      name: "axis"
      i: 0
      type: INT
    }

  }
  node {
    input: "select_30"
    input: "val_818"
    output: "unsqueeze_36"
    name: "node_unsqueeze_36"
    op_type: "Unsqueeze"

  }
  node {
    input: "unsqueeze_36"
    output: "_to_copy"
    name: "node__to_copy"
    op_type: "Cast"
    attribute {
      name: "to"
      i: 1
      type: INT
    }

  }
  node {
    input: "permute_17"
    input: "_to_copy"
    output: "mul_9"
    name: "node_mul_9"
    op_type: "Mul"

  }
  node {
    input: "zeros_like"
    input: "mul_9"
    output: "add_27"
    name: "node_add_27"
    op_type: "Add"

  }
  node {
    input: "view_4"
    input: "val_853"
    input: "val_1169"
    input: "val_850"
    input: "val_1176"
    output: "slice_28"
    name: "node_slice_28"
    op_type: "Slice"

  }
  node {
    input: "slice_28"
    input: "val_1177"
    output: "val_1277"
    name: "node_MatMul_1272"
    op_type: "MatMul"

  }
  node {
    input: "val_1277"
    input: "pts_bbox_head.transformer.encoder.layers.0.attentions.1.deformable_attention.value_proj.bias"
    output: "linear_9"
    name: "node_linear_9"
    op_type: "Add"

  }
  node {
    input: "linear_9"
    input: "val_1094"
    output: "view_35"
    name: "node_view_35"
    op_type: "Reshape"
    attribute {
      name: "allowzero"
      i: 1
      type: INT
    }

  }
  node {
    input: "permute_13"
    input: "val_656"
    output: "select_35"
    name: "node_select_35"
    op_type: "Gather"
    attribute {
      name: "axis"
      i: 0
      type: INT
    }

  }
  node {
    input: "select_35"
    input: "val_4307"
    output: "unsqueeze_48"
    name: "node_Unsqueeze_4981"
    op_type: "Unsqueeze"

  }
  node {
    input: "unsqueeze_48"
    input: "val_1007"
    output: "unsqueeze_49"
    name: "node_unsqueeze_49"
    op_type: "Unsqueeze"

  }
  node {
    input: "unsqueeze_49"
    input: "view_28"
    output: "add_28"
    name: "node_add_28"
    op_type: "Add"

  }
  node {
    input: "add_28"
    input: "val_1104"
    output: "view_40"
    name: "node_view_40"
    op_type: "Reshape"
    attribute {
      name: "allowzero"
      i: 1
      type: INT
    }

  }
  node {
    input: "view_35"
    input: "val_1231"
    output: "split_with_sizes_2_split_0"
    name: "node_Split_4493"
    op_type: "Split"
    attribute {
      name: "axis"
      i: 1
      type: INT
    }
  }
  node {
    input: "view_40"
    input: "scalar_tensor_default_6"
    output: "mul_10"
    name: "node_mul_10"
    op_type: "Mul"

  }
  node {
    input: "mul_10"
    input: "scalar_tensor_default_7"
    output: "sub_2"
    name: "node_sub_2"
    op_type: "Sub"

  }
  node {
    input: "split_with_sizes_2_split_0"
    output: "permute_22"
    name: "node_permute_22"
    op_type: "Transpose"
    attribute {
      name: "perm"
      ints: 0
      ints: 2
      ints: 3
      ints: 1
      type: INTS
    }

  }
  node {
    input: "permute_22"
    input: "val_1237"
    output: "view_41"
    name: "node_view_41"
    op_type: "Reshape"
    attribute {
      name: "allowzero"
      i: 1
      type: INT
    }

  }
  node {
    input: "sub_2"
    input: "val_630"
    output: "select_36"
    name: "node_select_36"
    op_type: "Gather"
    attribute {
      name: "axis"
      i: 3
      type: INT
    }

  }
  node {
    input: "select_36"
    output: "permute_23"
    name: "node_permute_23"
    op_type: "Transpose"
    attribute {
      name: "perm"
      ints: 0
      ints: 2
      ints: 1
      ints: 3
      ints: 4
      type: INTS
    }

  }
  node {
    input: "permute_23"
    input: "val_1135"
    output: "view_42"
    name: "node_view_42"
    op_type: "Reshape"
    attribute {
      name: "allowzero"
      i: 1
      type: INT
    }

  }
  node {
    input: "view_41"
    input: "view_42"
    output: "grid_sampler_2"
    name: "node_grid_sampler_2"
    op_type: "GridSample"
    attribute {
      name: "align_corners"
      i: 0
      type: INT
    }
    attribute {
      name: "padding_mode"
      s: "zeros"
      type: STRING
    }
    attribute {
      name: "mode"
      s: "bilinear"
      type: STRING
    }

  }
  node {
    input: "grid_sampler_2"
    input: "val_818"
    output: "val_1348"
    name: "node_Unsqueeze_1343"
    op_type: "Unsqueeze"

  }
  node {
    input: "val_1348"
    input: "val_1149"
    output: "view_44"
    name: "node_view_44"
    op_type: "Reshape"
    attribute {
      name: "allowzero"
      i: 1
      type: INT
    }

  }
  node {
    input: "view_44"
    input: "view_32"
    output: "mul_11"
    name: "node_mul_11"
    op_type: "Mul"

  }
  node {
    input: "mul_11"
    input: "val_818"
    output: "sum_4"
    name: "node_sum_4"
    op_type: "ReduceSum"
    attribute {
      name: "noop_with_empty_axes"
      i: 0
      type: INT
    }
    attribute {
      name: "keepdims"
      i: 0
      type: INT
    }

  }
  node {
    input: "sum_4"
    input: "val_1155"
    output: "view_45"
    name: "node_view_45"
    op_type: "Reshape"
    attribute {
      name: "allowzero"
      i: 1
      type: INT
    }

  }
  node {
    input: "view_45"
    output: "permute_25"
    name: "node_permute_25"
    op_type: "Transpose"
    attribute {
      name: "perm"
      ints: 0
      ints: 2
      ints: 1
      type: INTS
    }

  }
  node {
    input: "gt_3"
    input: "val_656"
    output: "select_37"
    name: "node_select_37"
    op_type: "Gather"
    attribute {
      name: "axis"
      i: 0
      type: INT
    }

  }
  node {
    input: "select_37"
    input: "val_818"
    output: "unsqueeze_50"
    name: "node_unsqueeze_50"
    op_type: "Unsqueeze"

  }
  node {
    input: "unsqueeze_50"
    output: "_to_copy_1"
    name: "node__to_copy_1"
    op_type: "Cast"
    attribute {
      name: "to"
      i: 1
      type: INT
    }

  }
  node {
    input: "permute_25"
    input: "_to_copy_1"
    output: "mul_12"
    name: "node_mul_12"
    op_type: "Mul"

  }
  node {
    input: "add_27"
    input: "mul_12"
    output: "add_29"
    name: "node_add_29"
    op_type: "Add"

  }
  node {
    input: "view_4"
    input: "val_890"
    input: "val_1169"
    input: "val_850"
    input: "val_1176"
    output: "slice_29"
    name: "node_slice_29"
    op_type: "Slice"

  }
  node {
    input: "slice_29"
    input: "val_1177"
    output: "val_1374"
    name: "node_MatMul_1369"
    op_type: "MatMul"

  }
  node {
    input: "val_1374"
    input: "pts_bbox_head.transformer.encoder.layers.0.attentions.1.deformable_attention.value_proj.bias"
    output: "linear_12"
    name: "node_linear_12"
    op_type: "Add"

  }
  node {
    input: "linear_12"
    input: "val_1094"
    output: "view_46"
    name: "node_view_46"
    op_type: "Reshape"
    attribute {
      name: "allowzero"
      i: 1
      type: INT
    }

  }
  node {
    input: "permute_13"
    input: "val_887"
    output: "select_42"
    name: "node_select_42"
    op_type: "Gather"
    attribute {
      name: "axis"
      i: 0
      type: INT
    }

  }
  node {
    input: "select_42"
    input: "val_4307"
    output: "unsqueeze_62"
    name: "node_Unsqueeze_4983"
    op_type: "Unsqueeze"

  }
  node {
    input: "unsqueeze_62"
    input: "val_1007"
    output: "unsqueeze_63"
    name: "node_unsqueeze_63"
    op_type: "Unsqueeze"

  }
  node {
    input: "unsqueeze_63"
    input: "view_28"
    output: "add_30"
    name: "node_add_30"
    op_type: "Add"

  }
  node {
    input: "add_30"
    input: "val_1104"
    output: "view_51"
    name: "node_view_51"
    op_type: "Reshape"
    attribute {
      name: "allowzero"
      i: 1
      type: INT
    }

  }
  node {
    input: "view_46"
    input: "val_1231"
    output: "split_with_sizes_3_split_0"
    name: "node_Split_4501"
    op_type: "Split"
    attribute {
      name: "axis"
      i: 1
      type: INT
    }
  }
  node {
    input: "view_51"
    input: "scalar_tensor_default_6"
    output: "mul_13"
    name: "node_mul_13"
    op_type: "Mul"

  }
  node {
    input: "mul_13"
    input: "scalar_tensor_default_7"
    output: "sub_3"
    name: "node_sub_3"
    op_type: "Sub"

  }
  node {
    input: "split_with_sizes_3_split_0"
    output: "permute_30"
    name: "node_permute_30"
    op_type: "Transpose"
    attribute {
      name: "perm"
      ints: 0
      ints: 2
      ints: 3
      ints: 1
      type: INTS
    }

  }
  node {
    input: "permute_30"
    input: "val_1237"
    output: "view_52"
    name: "node_view_52"
    op_type: "Reshape"
    attribute {
      name: "allowzero"
      i: 1
      type: INT
    }

  }
  node {
    input: "sub_3"
    input: "val_630"
    output: "select_43"
    name: "node_select_43"
    op_type: "Gather"
    attribute {
      name: "axis"
      i: 3
      type: INT
    }

  }
  node {
    input: "select_43"
    output: "permute_31"
    name: "node_permute_31"
    op_type: "Transpose"
    attribute {
      name: "perm"
      ints: 0
      ints: 2
      ints: 1
      ints: 3
      ints: 4
      type: INTS
    }

  }
  node {
    input: "permute_31"
    input: "val_1135"
    output: "view_53"
    name: "node_view_53"
    op_type: "Reshape"
    attribute {
      name: "allowzero"
      i: 1
      type: INT
    }

  }
  node {
    input: "view_52"
    input: "view_53"
    output: "grid_sampler_3"
    name: "node_grid_sampler_3"
    op_type: "GridSample"
    attribute {
      name: "align_corners"
      i: 0
      type: INT
    }
    attribute {
      name: "padding_mode"
      s: "zeros"
      type: STRING
    }
    attribute {
      name: "mode"
      s: "bilinear"
      type: STRING
    }

  }
  node {
    input: "grid_sampler_3"
    input: "val_818"
    output: "val_1445"
    name: "node_Unsqueeze_1440"
    op_type: "Unsqueeze"

  }
  node {
    input: "val_1445"
    input: "val_1149"
    output: "view_55"
    name: "node_view_55"
    op_type: "Reshape"
    attribute {
      name: "allowzero"
      i: 1
      type: INT
    }

  }
  node {
    input: "view_55"
    input: "view_32"
    output: "mul_14"
    name: "node_mul_14"
    op_type: "Mul"

  }
  node {
    input: "mul_14"
    input: "val_818"
    output: "sum_5"
    name: "node_sum_5"
    op_type: "ReduceSum"
    attribute {
      name: "noop_with_empty_axes"
      i: 0
      type: INT
    }
    attribute {
      name: "keepdims"
      i: 0
      type: INT
    }

  }
  node {
    input: "sum_5"
    input: "val_1155"
    output: "view_56"
    name: "node_view_56"
    op_type: "Reshape"
    attribute {
      name: "allowzero"
      i: 1
      type: INT
    }

  }
  node {
    input: "view_56"
    output: "permute_33"
    name: "node_permute_33"
    op_type: "Transpose"
    attribute {
      name: "perm"
      ints: 0
      ints: 2
      ints: 1
      type: INTS
    }

  }
  node {
    input: "gt_3"
    input: "val_887"
    output: "select_44"
    name: "node_select_44"
    op_type: "Gather"
    attribute {
      name: "axis"
      i: 0
      type: INT
    }

  }
  node {
    input: "select_44"
    input: "val_818"
    output: "unsqueeze_64"
    name: "node_unsqueeze_64"
    op_type: "Unsqueeze"

  }
  node {
    input: "unsqueeze_64"
    output: "_to_copy_2"
    name: "node__to_copy_2"
    op_type: "Cast"
    attribute {
      name: "to"
      i: 1
      type: INT
    }

  }
  node {
    input: "permute_33"
    input: "_to_copy_2"
    output: "mul_15"
    name: "node_mul_15"
    op_type: "Mul"

  }
  node {
    input: "add_29"
    input: "mul_15"
    output: "add_31"
    name: "node_add_31"
    op_type: "Add"

  }
  node {
    input: "view_4"
    input: "val_857"
    input: "val_1169"
    input: "val_850"
    input: "val_1176"
    output: "slice_30"
    name: "node_slice_30"
    op_type: "Slice"

  }
  node {
    input: "slice_30"
    input: "val_1177"
    output: "val_1471"
    name: "node_MatMul_1466"
    op_type: "MatMul"

  }
  node {
    input: "val_1471"
    input: "pts_bbox_head.transformer.encoder.layers.0.attentions.1.deformable_attention.value_proj.bias"
    output: "linear_15"
    name: "node_linear_15"
    op_type: "Add"

  }
  node {
    input: "linear_15"
    input: "val_1094"
    output: "view_57"
    name: "node_view_57"
    op_type: "Reshape"
    attribute {
      name: "allowzero"
      i: 1
      type: INT
    }

  }
  node {
    input: "permute_13"
    input: "val_854"
    output: "select_49"
    name: "node_select_49"
    op_type: "Gather"
    attribute {
      name: "axis"
      i: 0
      type: INT
    }

  }
  node {
    input: "select_49"
    input: "val_4307"
    output: "unsqueeze_76"
    name: "node_Unsqueeze_4985"
    op_type: "Unsqueeze"

  }
  node {
    input: "unsqueeze_76"
    input: "val_1007"
    output: "unsqueeze_77"
    name: "node_unsqueeze_77"
    op_type: "Unsqueeze"

  }
  node {
    input: "unsqueeze_77"
    input: "view_28"
    output: "add_32"
    name: "node_add_32"
    op_type: "Add"

  }
  node {
    input: "add_32"
    input: "val_1104"
    output: "view_62"
    name: "node_view_62"
    op_type: "Reshape"
    attribute {
      name: "allowzero"
      i: 1
      type: INT
    }

  }
  node {
    input: "view_57"
    input: "val_1231"
    output: "split_with_sizes_4_split_0"
    name: "node_Split_4509"
    op_type: "Split"
    attribute {
      name: "axis"
      i: 1
      type: INT
    }
  }
  node {
    input: "view_62"
    input: "scalar_tensor_default_6"
    output: "mul_16"
    name: "node_mul_16"
    op_type: "Mul"

  }
  node {
    input: "mul_16"
    input: "scalar_tensor_default_7"
    output: "sub_4"
    name: "node_sub_4"
    op_type: "Sub"

  }
  node {
    input: "split_with_sizes_4_split_0"
    output: "permute_38"
    name: "node_permute_38"
    op_type: "Transpose"
    attribute {
      name: "perm"
      ints: 0
      ints: 2
      ints: 3
      ints: 1
      type: INTS
    }

  }
  node {
    input: "permute_38"
    input: "val_1237"
    output: "view_63"
    name: "node_view_63"
    op_type: "Reshape"
    attribute {
      name: "allowzero"
      i: 1
      type: INT
    }

  }
  node {
    input: "sub_4"
    input: "val_630"
    output: "select_50"
    name: "node_select_50"
    op_type: "Gather"
    attribute {
      name: "axis"
      i: 3
      type: INT
    }

  }
  node {
    input: "select_50"
    output: "permute_39"
    name: "node_permute_39"
    op_type: "Transpose"
    attribute {
      name: "perm"
      ints: 0
      ints: 2
      ints: 1
      ints: 3
      ints: 4
      type: INTS
    }

  }
  node {
    input: "permute_39"
    input: "val_1135"
    output: "view_64"
    name: "node_view_64"
    op_type: "Reshape"
    attribute {
      name: "allowzero"
      i: 1
      type: INT
    }

  }
  node {
    input: "view_63"
    input: "view_64"
    output: "grid_sampler_4"
    name: "node_grid_sampler_4"
    op_type: "GridSample"
    attribute {
      name: "align_corners"
      i: 0
      type: INT
    }
    attribute {
      name: "padding_mode"
      s: "zeros"
      type: STRING
    }
    attribute {
      name: "mode"
      s: "bilinear"
      type: STRING
    }

  }
  node {
    input: "grid_sampler_4"
    input: "val_818"
    output: "val_1542"
    name: "node_Unsqueeze_1537"
    op_type: "Unsqueeze"

  }
  node {
    input: "val_1542"
    input: "val_1149"
    output: "view_66"
    name: "node_view_66"
    op_type: "Reshape"
    attribute {
      name: "allowzero"
      i: 1
      type: INT
    }

  }
  node {
    input: "view_66"
    input: "view_32"
    output: "mul_17"
    name: "node_mul_17"
    op_type: "Mul"

  }
  node {
    input: "mul_17"
    input: "val_818"
    output: "sum_6"
    name: "node_sum_6"
    op_type: "ReduceSum"
    attribute {
      name: "noop_with_empty_axes"
      i: 0
      type: INT
    }
    attribute {
      name: "keepdims"
      i: 0
      type: INT
    }

  }
  node {
    input: "sum_6"
    input: "val_1155"
    output: "view_67"
    name: "node_view_67"
    op_type: "Reshape"
    attribute {
      name: "allowzero"
      i: 1
      type: INT
    }

  }
  node {
    input: "view_67"
    output: "permute_41"
    name: "node_permute_41"
    op_type: "Transpose"
    attribute {
      name: "perm"
      ints: 0
      ints: 2
      ints: 1
      type: INTS
    }

  }
  node {
    input: "gt_3"
    input: "val_854"
    output: "select_51"
    name: "node_select_51"
    op_type: "Gather"
    attribute {
      name: "axis"
      i: 0
      type: INT
    }

  }
  node {
    input: "select_51"
    input: "val_818"
    output: "unsqueeze_78"
    name: "node_unsqueeze_78"
    op_type: "Unsqueeze"

  }
  node {
    input: "unsqueeze_78"
    output: "_to_copy_3"
    name: "node__to_copy_3"
    op_type: "Cast"
    attribute {
      name: "to"
      i: 1
      type: INT
    }

  }
  node {
    input: "permute_41"
    input: "_to_copy_3"
    output: "mul_18"
    name: "node_mul_18"
    op_type: "Mul"

  }
  node {
    input: "add_31"
    input: "mul_18"
    output: "add_33"
    name: "node_add_33"
    op_type: "Add"

  }
  node {
    input: "view_4"
    input: "val_1007"
    input: "val_1169"
    input: "val_850"
    input: "val_1176"
    output: "slice_31"
    name: "node_slice_31"
    op_type: "Slice"

  }
  node {
    input: "slice_31"
    input: "val_1177"
    output: "val_1568"
    name: "node_MatMul_1563"
    op_type: "MatMul"

  }
  node {
    input: "val_1568"
    input: "pts_bbox_head.transformer.encoder.layers.0.attentions.1.deformable_attention.value_proj.bias"
    output: "linear_18"
    name: "node_linear_18"
    op_type: "Add"

  }
  node {
    input: "linear_18"
    input: "val_1094"
    output: "view_68"
    name: "node_view_68"
    op_type: "Reshape"
    attribute {
      name: "allowzero"
      i: 1
      type: INT
    }

  }
  node {
    input: "permute_13"
    input: "val_728"
    output: "select_56"
    name: "node_select_56"
    op_type: "Gather"
    attribute {
      name: "axis"
      i: 0
      type: INT
    }

  }
  node {
    input: "select_56"
    input: "val_4307"
    output: "unsqueeze_90"
    name: "node_Unsqueeze_4987"
    op_type: "Unsqueeze"

  }
  node {
    input: "unsqueeze_90"
    input: "val_1007"
    output: "unsqueeze_91"
    name: "node_unsqueeze_91"
    op_type: "Unsqueeze"

  }
  node {
    input: "unsqueeze_91"
    input: "view_28"
    output: "add_34"
    name: "node_add_34"
    op_type: "Add"

  }
  node {
    input: "add_34"
    input: "val_1104"
    output: "view_73"
    name: "node_view_73"
    op_type: "Reshape"
    attribute {
      name: "allowzero"
      i: 1
      type: INT
    }

  }
  node {
    input: "view_68"
    input: "val_1231"
    output: "split_with_sizes_5_split_0"
    name: "node_Split_4517"
    op_type: "Split"
    attribute {
      name: "axis"
      i: 1
      type: INT
    }
  }
  node {
    input: "view_73"
    input: "scalar_tensor_default_6"
    output: "mul_19"
    name: "node_mul_19"
    op_type: "Mul"

  }
  node {
    input: "mul_19"
    input: "scalar_tensor_default_7"
    output: "sub_5"
    name: "node_sub_5"
    op_type: "Sub"

  }
  node {
    input: "split_with_sizes_5_split_0"
    output: "permute_46"
    name: "node_permute_46"
    op_type: "Transpose"
    attribute {
      name: "perm"
      ints: 0
      ints: 2
      ints: 3
      ints: 1
      type: INTS
    }

  }
  node {
    input: "permute_46"
    input: "val_1237"
    output: "view_74"
    name: "node_view_74"
    op_type: "Reshape"
    attribute {
      name: "allowzero"
      i: 1
      type: INT
    }

  }
  node {
    input: "sub_5"
    input: "val_630"
    output: "select_57"
    name: "node_select_57"
    op_type: "Gather"
    attribute {
      name: "axis"
      i: 3
      type: INT
    }

  }
  node {
    input: "select_57"
    output: "permute_47"
    name: "node_permute_47"
    op_type: "Transpose"
    attribute {
      name: "perm"
      ints: 0
      ints: 2
      ints: 1
      ints: 3
      ints: 4
      type: INTS
    }

  }
  node {
    input: "permute_47"
    input: "val_1135"
    output: "view_75"
    name: "node_view_75"
    op_type: "Reshape"
    attribute {
      name: "allowzero"
      i: 1
      type: INT
    }

  }
  node {
    input: "view_74"
    input: "view_75"
    output: "grid_sampler_5"
    name: "node_grid_sampler_5"
    op_type: "GridSample"
    attribute {
      name: "align_corners"
      i: 0
      type: INT
    }
    attribute {
      name: "padding_mode"
      s: "zeros"
      type: STRING
    }
    attribute {
      name: "mode"
      s: "bilinear"
      type: STRING
    }

  }
  node {
    input: "grid_sampler_5"
    input: "val_818"
    output: "val_1639"
    name: "node_Unsqueeze_1634"
    op_type: "Unsqueeze"

  }
  node {
    input: "val_1639"
    input: "val_1149"
    output: "view_77"
    name: "node_view_77"
    op_type: "Reshape"
    attribute {
      name: "allowzero"
      i: 1
      type: INT
    }

  }
  node {
    input: "view_77"
    input: "view_32"
    output: "mul_20"
    name: "node_mul_20"
    op_type: "Mul"

  }
  node {
    input: "mul_20"
    input: "val_818"
    output: "sum_7"
    name: "node_sum_7"
    op_type: "ReduceSum"
    attribute {
      name: "noop_with_empty_axes"
      i: 0
      type: INT
    }
    attribute {
      name: "keepdims"
      i: 0
      type: INT
    }

  }
  node {
    input: "sum_7"
    input: "val_1155"
    output: "view_78"
    name: "node_view_78"
    op_type: "Reshape"
    attribute {
      name: "allowzero"
      i: 1
      type: INT
    }

  }
  node {
    input: "view_78"
    output: "permute_49"
    name: "node_permute_49"
    op_type: "Transpose"
    attribute {
      name: "perm"
      ints: 0
      ints: 2
      ints: 1
      type: INTS
    }

  }
  node {
    input: "gt_3"
    input: "val_728"
    output: "select_58"
    name: "node_select_58"
    op_type: "Gather"
    attribute {
      name: "axis"
      i: 0
      type: INT
    }

  }
  node {
    input: "select_58"
    input: "val_818"
    output: "unsqueeze_92"
    name: "node_unsqueeze_92"
    op_type: "Unsqueeze"

  }
  node {
    input: "unsqueeze_92"
    output: "_to_copy_4"
    name: "node__to_copy_4"
    op_type: "Cast"
    attribute {
      name: "to"
      i: 1
      type: INT
    }

  }
  node {
    input: "permute_49"
    input: "_to_copy_4"
    output: "mul_21"
    name: "node_mul_21"
    op_type: "Mul"

  }
  node {
    input: "add_33"
    input: "mul_21"
    output: "add_35"
    name: "node_add_35"
    op_type: "Add"

  }
  node {
    input: "view_4"
    input: "val_1655"
    input: "val_1169"
    input: "val_850"
    input: "val_1176"
    output: "slice_32"
    name: "node_slice_32"
    op_type: "Slice"

  }
  node {
    input: "slice_32"
    input: "val_1177"
    output: "val_1666"
    name: "node_MatMul_1661"
    op_type: "MatMul"

  }
  node {
    input: "val_1666"
    input: "pts_bbox_head.transformer.encoder.layers.0.attentions.1.deformable_attention.value_proj.bias"
    output: "linear_21"
    name: "node_linear_21"
    op_type: "Add"

  }
  node {
    input: "linear_21"
    input: "val_1094"
    output: "view_79"
    name: "node_view_79"
    op_type: "Reshape"
    attribute {
      name: "allowzero"
      i: 1
      type: INT
    }

  }
  node {
    input: "permute_13"
    input: "val_1652"
    output: "select_63"
    name: "node_select_63"
    op_type: "Gather"
    attribute {
      name: "axis"
      i: 0
      type: INT
    }

  }
  node {
    input: "select_63"
    input: "val_4307"
    output: "unsqueeze_104"
    name: "node_Unsqueeze_4989"
    op_type: "Unsqueeze"

  }
  node {
    input: "unsqueeze_104"
    input: "val_1007"
    output: "unsqueeze_105"
    name: "node_unsqueeze_105"
    op_type: "Unsqueeze"

  }
  node {
    input: "unsqueeze_105"
    input: "view_28"
    output: "add_36"
    name: "node_add_36"
    op_type: "Add"

  }
  node {
    input: "add_36"
    input: "val_1104"
    output: "view_84"
    name: "node_view_84"
    op_type: "Reshape"
    attribute {
      name: "allowzero"
      i: 1
      type: INT
    }

  }
  node {
    input: "view_79"
    input: "val_1231"
    output: "split_with_sizes_6_split_0"
    name: "node_Split_4525"
    op_type: "Split"
    attribute {
      name: "axis"
      i: 1
      type: INT
    }
  }
  node {
    input: "view_84"
    input: "scalar_tensor_default_6"
    output: "mul_22"
    name: "node_mul_22"
    op_type: "Mul"

  }
  node {
    input: "mul_22"
    input: "scalar_tensor_default_7"
    output: "sub_6"
    name: "node_sub_6"
    op_type: "Sub"

  }
  node {
    input: "split_with_sizes_6_split_0"
    output: "permute_54"
    name: "node_permute_54"
    op_type: "Transpose"
    attribute {
      name: "perm"
      ints: 0
      ints: 2
      ints: 3
      ints: 1
      type: INTS
    }

  }
  node {
    input: "permute_54"
    input: "val_1237"
    output: "view_85"
    name: "node_view_85"
    op_type: "Reshape"
    attribute {
      name: "allowzero"
      i: 1
      type: INT
    }

  }
  node {
    input: "sub_6"
    input: "val_630"
    output: "select_64"
    name: "node_select_64"
    op_type: "Gather"
    attribute {
      name: "axis"
      i: 3
      type: INT
    }

  }
  node {
    input: "select_64"
    output: "permute_55"
    name: "node_permute_55"
    op_type: "Transpose"
    attribute {
      name: "perm"
      ints: 0
      ints: 2
      ints: 1
      ints: 3
      ints: 4
      type: INTS
    }

  }
  node {
    input: "permute_55"
    input: "val_1135"
    output: "view_86"
    name: "node_view_86"
    op_type: "Reshape"
    attribute {
      name: "allowzero"
      i: 1
      type: INT
    }

  }
  node {
    input: "view_85"
    input: "view_86"
    output: "grid_sampler_6"
    name: "node_grid_sampler_6"
    op_type: "GridSample"
    attribute {
      name: "align_corners"
      i: 0
      type: INT
    }
    attribute {
      name: "padding_mode"
      s: "zeros"
      type: STRING
    }
    attribute {
      name: "mode"
      s: "bilinear"
      type: STRING
    }

  }
  node {
    input: "grid_sampler_6"
    input: "val_818"
    output: "val_1737"
    name: "node_Unsqueeze_1732"
    op_type: "Unsqueeze"

  }
  node {
    input: "val_1737"
    input: "val_1149"
    output: "view_88"
    name: "node_view_88"
    op_type: "Reshape"
    attribute {
      name: "allowzero"
      i: 1
      type: INT
    }

  }
  node {
    input: "view_88"
    input: "view_32"
    output: "mul_23"
    name: "node_mul_23"
    op_type: "Mul"

  }
  node {
    input: "mul_23"
    input: "val_818"
    output: "sum_8"
    name: "node_sum_8"
    op_type: "ReduceSum"
    attribute {
      name: "noop_with_empty_axes"
      i: 0
      type: INT
    }
    attribute {
      name: "keepdims"
      i: 0
      type: INT
    }

  }
  node {
    input: "sum_8"
    input: "val_1155"
    output: "view_89"
    name: "node_view_89"
    op_type: "Reshape"
    attribute {
      name: "allowzero"
      i: 1
      type: INT
    }

  }
  node {
    input: "view_89"
    output: "permute_57"
    name: "node_permute_57"
    op_type: "Transpose"
    attribute {
      name: "perm"
      ints: 0
      ints: 2
      ints: 1
      type: INTS
    }

  }
  node {
    input: "gt_3"
    input: "val_1652"
    output: "select_65"
    name: "node_select_65"
    op_type: "Gather"
    attribute {
      name: "axis"
      i: 0
      type: INT
    }

  }
  node {
    input: "select_65"
    input: "val_818"
    output: "unsqueeze_106"
    name: "node_unsqueeze_106"
    op_type: "Unsqueeze"

  }
  node {
    input: "unsqueeze_106"
    output: "_to_copy_5"
    name: "node__to_copy_5"
    op_type: "Cast"
    attribute {
      name: "to"
      i: 1
      type: INT
    }

  }
  node {
    input: "permute_57"
    input: "_to_copy_5"
    output: "mul_24"
    name: "node_mul_24"
    op_type: "Mul"

  }
  node {
    input: "add_35"
    input: "mul_24"
    output: "add_37"
    name: "node_add_37"
    op_type: "Add"

  }
  node {
    input: "gt_3"
    output: "permute_58"
    name: "node_permute_58"
    op_type: "Transpose"
    attribute {
      name: "perm"
      ints: 1
      ints: 2
      ints: 0
      type: INTS
    }

  }
  node {
    input: "permute_58"
    output: "convert_element_type_default_1"
    name: "node_convert_element_type_default_1"
    op_type: "Cast"
    attribute {
      name: "to"
      i: 7
      type: INT
    }

  }
  node {
    input: "convert_element_type_default_1"
    input: "val_818"
    output: "sum_9"
    name: "node_sum_9"
    op_type: "ReduceSum"
    attribute {
      name: "noop_with_empty_axes"
      i: 0
      type: INT
    }
    attribute {
      name: "keepdims"
      i: 0
      type: INT
    }

  }
  node {
    input: "sum_9"
    output: "convert_element_type_default_2"
    name: "node_convert_element_type_default_2"
    op_type: "Cast"
    attribute {
      name: "to"
      i: 1
      type: INT
    }

  }
  node {
    input: "convert_element_type_default_2"
    input: "scalar_tensor_default_7"
    output: "clamp_1"
    name: "node_clamp_1"
    op_type: "Clip"

  }
  node {
    input: "clamp_1"
    input: "val_818"
    output: "unsqueeze_107"
    name: "node_unsqueeze_107"
    op_type: "Unsqueeze"

  }
  node {
    input: "add_37"
    input: "unsqueeze_107"
    output: "div_15"
    name: "node_div_15"
    op_type: "Div"

  }
  node {
    input: "div_15"
    input: "val_1752"
    output: "val_1753"
    name: "node_MatMul_1748"
    op_type: "MatMul"

  }
  node {
    input: "val_1753"
    input: "pts_bbox_head.transformer.encoder.layers.0.attentions.1.output_proj.bias"
    output: "linear_24"
    name: "node_linear_24"
    op_type: "Add"

  }
  node {
    input: "layer_norm_1"
    input: "linear_24"
    output: "add_38"
    name: "node_add_38"
    op_type: "Add"

  }
  node {
    input: "add_38"
    input: "pts_bbox_head.transformer.encoder.layers.0.norms.1.weight"
    input: "pts_bbox_head.transformer.encoder.layers.0.norms.1.bias"
    output: "layer_norm_2"
    name: "node_layer_norm_2"
    op_type: "LayerNormalization"
    attribute {
      name: "stash_type"
      i: 1
      type: INT
    }
    attribute {
      name: "epsilon"
      f: 1e-05
      type: FLOAT
    }
    attribute {
      name: "axis"
      i: -1
      type: INT
    }

  }
  node {
    input: "layer_norm_2"
    input: "val_1756"
    output: "val_1757"
    name: "node_MatMul_1750"
    op_type: "MatMul"

  }
  node {
    input: "val_1757"
    input: "pts_bbox_head.transformer.encoder.layers.0.ffns.0.layers.0.0.bias"
    output: "linear_25"
    name: "node_linear_25"
    op_type: "Add"

  }
  node {
    input: "linear_25"
    output: "relu_50"
    name: "node_relu_50"
    op_type: "Relu"

  }
  node {
    input: "relu_50"
    input: "val_1758"
    output: "val_1759"
    name: "node_MatMul_1752"
    op_type: "MatMul"

  }
  node {
    input: "val_1759"
    input: "pts_bbox_head.transformer.encoder.layers.0.ffns.0.layers.1.bias"
    output: "linear_26"
    name: "node_linear_26"
    op_type: "Add"

  }
  node {
    input: "layer_norm_2"
    input: "linear_26"
    output: "add_39"
    name: "node_add_39"
    op_type: "Add"

  }
  node {
    input: "add_39"
    input: "pts_bbox_head.transformer.encoder.layers.0.norms.2.weight"
    input: "pts_bbox_head.transformer.encoder.layers.0.norms.2.bias"
    output: "layer_norm_3"
    name: "node_layer_norm_3"
    op_type: "LayerNormalization"
    attribute {
      name: "stash_type"
      i: 1
      type: INT
    }
    attribute {
      name: "epsilon"
      f: 1e-05
      type: FLOAT
    }
    attribute {
      name: "axis"
      i: -1
      type: INT
    }

  }
  node {
    input: "layer_norm_3"
    input: "expand_3"
    output: "add_40"
    name: "node_add_40"
    op_type: "Add"

  }
  node {
    input: "add_40"
    input: "zeros_like"
    output: "cat_4"
    name: "node_cat_4"
    op_type: "Concat"
    attribute {
      name: "axis"
      i: -1
      type: INT
    }

  }
  node {
    input: "layer_norm_3"
    input: "val_1764"
    output: "val_1765"
    name: "node_MatMul_1756"
    op_type: "MatMul"

  }
  node {
    input: "val_1765"
    input: "pts_bbox_head.transformer.encoder.layers.1.attentions.0.value_proj.bias"
    output: "linear_27"
    name: "node_linear_27"
    op_type: "Add"

  }
  node {
    input: "linear_27"
    input: "val_1094"
    output: "view_90"
    name: "node_view_90"
    op_type: "Reshape"
    attribute {
      name: "allowzero"
      i: 1
      type: INT
    }

  }
  node {
    input: "cat_4"
    input: "val_1772"
    output: "val_1773"
    name: "node_MatMul_1764"
    op_type: "MatMul"

  }
  node {
    input: "val_1773"
    input: "pts_bbox_head.transformer.encoder.layers.1.attentions.0.sampling_offsets.bias"
    output: "linear_28"
    name: "node_linear_28"
    op_type: "Add"

  }
  node {
    input: "linear_28"
    input: "val_1104"
    output: "view_91"
    name: "node_view_91"
    op_type: "Reshape"
    attribute {
      name: "allowzero"
      i: 1
      type: INT
    }

  }
  node {
    input: "cat_4"
    input: "val_1782"
    output: "val_1783"
    name: "node_MatMul_1774"
    op_type: "MatMul"

  }
  node {
    input: "val_1783"
    input: "pts_bbox_head.transformer.encoder.layers.1.attentions.0.attention_weights.bias"
    output: "linear_29"
    name: "node_linear_29"
    op_type: "Add"

  }
  node {
    input: "linear_29"
    input: "val_1112"
    output: "view_92"
    name: "node_view_92"
    op_type: "Reshape"
    attribute {
      name: "allowzero"
      i: 1
      type: INT
    }

  }
  node {
    input: "view_92"
    output: "softmax_7"
    name: "node_softmax_7"
    op_type: "Softmax"
    attribute {
      name: "axis"
      i: -1
      type: INT
    }

  }
  node {
    input: "softmax_7"
    input: "val_1119"
    output: "view_93"
    name: "node_view_93"
    op_type: "Reshape"
    attribute {
      name: "allowzero"
      i: 1
      type: INT
    }

  }
  node {
    input: "view_91"
    input: "unsqueeze_20"
    output: "div_16"
    name: "node_div_16"
    op_type: "Div"

  }
  node {
    input: "unsqueeze_113"
    input: "div_16"
    output: "add_41"
    name: "node_add_41"
    op_type: "Add"

  }
  node {
    input: "view_90"
    input: "val_1123"
    output: "split_with_sizes_7_split_0"
    name: "node_Split_4532"
    op_type: "Split"
    attribute {
      name: "axis"
      i: 1
      type: INT
    }
  }
  node {
    input: "add_41"
    input: "scalar_tensor_default_6"
    output: "mul_25"
    name: "node_mul_25"
    op_type: "Mul"

  }
  node {
    input: "mul_25"
    input: "scalar_tensor_default_7"
    output: "sub_7"
    name: "node_sub_7"
    op_type: "Sub"

  }
  node {
    input: "split_with_sizes_7_split_0"
    output: "permute_59"
    name: "node_permute_59"
    op_type: "Transpose"
    attribute {
      name: "perm"
      ints: 0
      ints: 2
      ints: 3
      ints: 1
      type: INTS
    }

  }
  node {
    input: "permute_59"
    input: "val_1129"
    output: "view_94"
    name: "node_view_94"
    op_type: "Reshape"
    attribute {
      name: "allowzero"
      i: 1
      type: INT
    }

  }
  node {
    input: "sub_7"
    input: "val_630"
    output: "select_66"
    name: "node_select_66"
    op_type: "Gather"
    attribute {
      name: "axis"
      i: 3
      type: INT
    }

  }
  node {
    input: "select_66"
    output: "permute_60"
    name: "node_permute_60"
    op_type: "Transpose"
    attribute {
      name: "perm"
      ints: 0
      ints: 2
      ints: 1
      ints: 3
      ints: 4
      type: INTS
    }

  }
  node {
    input: "permute_60"
    input: "val_1135"
    output: "view_95"
    name: "node_view_95"
    op_type: "Reshape"
    attribute {
      name: "allowzero"
      i: 1
      type: INT
    }

  }
  node {
    input: "view_94"
    input: "view_95"
    output: "grid_sampler_7"
    name: "node_grid_sampler_7"
    op_type: "GridSample"
    attribute {
      name: "align_corners"
      i: 0
      type: INT
    }
    attribute {
      name: "padding_mode"
      s: "zeros"
      type: STRING
    }
    attribute {
      name: "mode"
      s: "bilinear"
      type: STRING
    }

  }
  node {
    input: "view_93"
    output: "permute_61"
    name: "node_permute_61"
    op_type: "Transpose"
    attribute {
      name: "perm"
      ints: 0
      ints: 2
      ints: 1
      ints: 3
      ints: 4
      type: INTS
    }

  }
  node {
    input: "permute_61"
    input: "val_1141"
    output: "view_96"
    name: "node_view_96"
    op_type: "Reshape"
    attribute {
      name: "allowzero"
      i: 1
      type: INT
    }

  }
  node {
    input: "grid_sampler_7"
    input: "val_818"
    output: "val_1819"
    name: "node_Unsqueeze_1810"
    op_type: "Unsqueeze"

  }
  node {
    input: "val_1819"
    input: "val_1149"
    output: "view_97"
    name: "node_view_97"
    op_type: "Reshape"
    attribute {
      name: "allowzero"
      i: 1
      type: INT
    }

  }
  node {
    input: "view_97"
    input: "view_96"
    output: "mul_26"
    name: "node_mul_26"
    op_type: "Mul"

  }
  node {
    input: "mul_26"
    input: "val_818"
    output: "sum_10"
    name: "node_sum_10"
    op_type: "ReduceSum"
    attribute {
      name: "noop_with_empty_axes"
      i: 0
      type: INT
    }
    attribute {
      name: "keepdims"
      i: 0
      type: INT
    }

  }
  node {
    input: "sum_10"
    input: "val_1155"
    output: "view_98"
    name: "node_view_98"
    op_type: "Reshape"
    attribute {
      name: "allowzero"
      i: 1
      type: INT
    }

  }
  node {
    input: "view_98"
    output: "permute_62"
    name: "node_permute_62"
    op_type: "Transpose"
    attribute {
      name: "perm"
      ints: 0
      ints: 2
      ints: 1
      type: INTS
    }

  }
  node {
    input: "permute_62"
    input: "val_1832"
    output: "val_1833"
    name: "node_MatMul_1824"
    op_type: "MatMul"

  }
  node {
    input: "val_1833"
    input: "pts_bbox_head.transformer.encoder.layers.1.attentions.0.output_proj.bias"
    output: "linear_30"
    name: "node_linear_30"
    op_type: "Add"

  }
  node {
    input: "layer_norm_3"
    input: "linear_30"
    output: "add_42"
    name: "node_add_42"
    op_type: "Add"

  }
  node {
    input: "add_42"
    input: "pts_bbox_head.transformer.encoder.layers.1.norms.0.weight"
    input: "pts_bbox_head.transformer.encoder.layers.1.norms.0.bias"
    output: "layer_norm_4"
    name: "node_layer_norm_4"
    op_type: "LayerNormalization"
    attribute {
      name: "stash_type"
      i: 1
      type: INT
    }
    attribute {
      name: "epsilon"
      f: 1e-05
      type: FLOAT
    }
    attribute {
      name: "axis"
      i: -1
      type: INT
    }

  }
  node {
    input: "layer_norm_4"
    input: "expand_3"
    output: "add_43"
    name: "node_add_43"
    op_type: "Add"

  }
  node {
    input: "pts_bbox_head.transformer.encoder.layers.1.attentions.1.deformable_attention.value_proj.weight"
    output: "val_1851"
    name: "node_Transpose_1840"
    op_type: "Transpose"
    attribute {
      name: "perm"
      ints: 1
      ints: 0
      type: INTS
    }

  }
  node {
    input: "slice_27"
    input: "val_1851"
    output: "val_1852"
    name: "node_MatMul_1841"
    op_type: "MatMul"

  }
  node {
    input: "val_1852"
    input: "pts_bbox_head.transformer.encoder.layers.1.attentions.1.deformable_attention.value_proj.bias"
    output: "linear_31"
    name: "node_linear_31"
    op_type: "Add"

  }
  node {
    input: "linear_31"
    input: "val_1094"
    output: "view_99"
    name: "node_view_99"
    op_type: "Reshape"
    attribute {
      name: "allowzero"
      i: 1
      type: INT
    }

  }
  node {
    input: "pts_bbox_head.transformer.encoder.layers.1.attentions.1.deformable_attention.sampling_offsets.weight"
    output: "val_1859"
    name: "node_Transpose_1848"
    op_type: "Transpose"
    attribute {
      name: "perm"
      ints: 1
      ints: 0
      type: INTS
    }

  }
  node {
    input: "add_43"
    input: "val_1859"
    output: "val_1860"
    name: "node_MatMul_1849"
    op_type: "MatMul"

  }
  node {
    input: "val_1860"
    input: "pts_bbox_head.transformer.encoder.layers.1.attentions.1.deformable_attention.sampling_offsets.bias"
    output: "linear_32"
    name: "node_linear_32"
    op_type: "Add"

  }
  node {
    input: "linear_32"
    input: "val_1104"
    output: "view_100"
    name: "node_view_100"
    op_type: "Reshape"
    attribute {
      name: "allowzero"
      i: 1
      type: INT
    }

  }
  node {
    input: "pts_bbox_head.transformer.encoder.layers.1.attentions.1.deformable_attention.attention_weights.weight"
    output: "val_1869"
    name: "node_Transpose_1858"
    op_type: "Transpose"
    attribute {
      name: "perm"
      ints: 1
      ints: 0
      type: INTS
    }

  }
  node {
    input: "add_43"
    input: "val_1869"
    output: "val_1870"
    name: "node_MatMul_1859"
    op_type: "MatMul"

  }
  node {
    input: "val_1870"
    input: "pts_bbox_head.transformer.encoder.layers.1.attentions.1.deformable_attention.attention_weights.bias"
    output: "linear_33"
    name: "node_linear_33"
    op_type: "Add"

  }
  node {
    input: "linear_33"
    input: "val_1112"
    output: "view_101"
    name: "node_view_101"
    op_type: "Reshape"
    attribute {
      name: "allowzero"
      i: 1
      type: INT
    }

  }
  node {
    input: "view_101"
    output: "softmax_8"
    name: "node_softmax_8"
    op_type: "Softmax"
    attribute {
      name: "axis"
      i: -1
      type: INT
    }

  }
  node {
    input: "softmax_8"
    input: "val_1119"
    output: "view_102"
    name: "node_view_102"
    op_type: "Reshape"
    attribute {
      name: "allowzero"
      i: 1
      type: INT
    }

  }
  node {
    input: "view_100"
    input: "unsqueeze_26"
    output: "div_17"
    name: "node_div_17"
    op_type: "Div"

  }
  node {
    input: "div_17"
    input: "val_1221"
    output: "view_103"
    name: "node_view_103"
    op_type: "Reshape"
    attribute {
      name: "allowzero"
      i: 1
      type: INT
    }

  }
  node {
    input: "unsqueeze_35"
    input: "view_103"
    output: "add_44"
    name: "node_add_44"
    op_type: "Add"

  }
  node {
    input: "add_44"
    input: "val_1104"
    output: "view_104"
    name: "node_view_104"
    op_type: "Reshape"
    attribute {
      name: "allowzero"
      i: 1
      type: INT
    }

  }
  node {
    input: "view_99"
    input: "val_1231"
    output: "split_with_sizes_8_split_0"
    name: "node_Split_4542"
    op_type: "Split"
    attribute {
      name: "axis"
      i: 1
      type: INT
    }
  }
  node {
    input: "view_104"
    input: "scalar_tensor_default_6"
    output: "mul_27"
    name: "node_mul_27"
    op_type: "Mul"

  }
  node {
    input: "mul_27"
    input: "scalar_tensor_default_7"
    output: "sub_8"
    name: "node_sub_8"
    op_type: "Sub"

  }
  node {
    input: "split_with_sizes_8_split_0"
    output: "permute_67"
    name: "node_permute_67"
    op_type: "Transpose"
    attribute {
      name: "perm"
      ints: 0
      ints: 2
      ints: 3
      ints: 1
      type: INTS
    }

  }
  node {
    input: "permute_67"
    input: "val_1237"
    output: "view_105"
    name: "node_view_105"
    op_type: "Reshape"
    attribute {
      name: "allowzero"
      i: 1
      type: INT
    }

  }
  node {
    input: "sub_8"
    input: "val_630"
    output: "select_72"
    name: "node_select_72"
    op_type: "Gather"
    attribute {
      name: "axis"
      i: 3
      type: INT
    }

  }
  node {
    input: "select_72"
    output: "permute_68"
    name: "node_permute_68"
    op_type: "Transpose"
    attribute {
      name: "perm"
      ints: 0
      ints: 2
      ints: 1
      ints: 3
      ints: 4
      type: INTS
    }

  }
  node {
    input: "permute_68"
    input: "val_1135"
    output: "view_106"
    name: "node_view_106"
    op_type: "Reshape"
    attribute {
      name: "allowzero"
      i: 1
      type: INT
    }

  }
  node {
    input: "view_105"
    input: "view_106"
    output: "grid_sampler_8"
    name: "node_grid_sampler_8"
    op_type: "GridSample"
    attribute {
      name: "align_corners"
      i: 0
      type: INT
    }
    attribute {
      name: "padding_mode"
      s: "zeros"
      type: STRING
    }
    attribute {
      name: "mode"
      s: "bilinear"
      type: STRING
    }

  }
  node {
    input: "view_102"
    output: "permute_69"
    name: "node_permute_69"
    op_type: "Transpose"
    attribute {
      name: "perm"
      ints: 0
      ints: 2
      ints: 1
      ints: 3
      ints: 4
      type: INTS
    }

  }
  node {
    input: "permute_69"
    input: "val_1141"
    output: "view_107"
    name: "node_view_107"
    op_type: "Reshape"
    attribute {
      name: "allowzero"
      i: 1
      type: INT
    }

  }
  node {
    input: "grid_sampler_8"
    input: "val_818"
    output: "val_1923"
    name: "node_Unsqueeze_1912"
    op_type: "Unsqueeze"

  }
  node {
    input: "val_1923"
    input: "val_1149"
    output: "view_108"
    name: "node_view_108"
    op_type: "Reshape"
    attribute {
      name: "allowzero"
      i: 1
      type: INT
    }

  }
  node {
    input: "view_108"
    input: "view_107"
    output: "mul_28"
    name: "node_mul_28"
    op_type: "Mul"

  }
  node {
    input: "mul_28"
    input: "val_818"
    output: "sum_12"
    name: "node_sum_12"
    op_type: "ReduceSum"
    attribute {
      name: "noop_with_empty_axes"
      i: 0
      type: INT
    }
    attribute {
      name: "keepdims"
      i: 0
      type: INT
    }

  }
  node {
    input: "sum_12"
    input: "val_1155"
    output: "view_109"
    name: "node_view_109"
    op_type: "Reshape"
    attribute {
      name: "allowzero"
      i: 1
      type: INT
    }

  }
  node {
    input: "view_109"
    output: "permute_70"
    name: "node_permute_70"
    op_type: "Transpose"
    attribute {
      name: "perm"
      ints: 0
      ints: 2
      ints: 1
      type: INTS
    }

  }
  node {
    input: "permute_70"
    input: "_to_copy"
    output: "mul_29"
    name: "node_mul_29"
    op_type: "Mul"

  }
  node {
    input: "zeros_like"
    input: "mul_29"
    output: "add_45"
    name: "node_add_45"
    op_type: "Add"

  }
  node {
    input: "slice_28"
    input: "val_1851"
    output: "val_1949"
    name: "node_MatMul_1938"
    op_type: "MatMul"

  }
  node {
    input: "val_1949"
    input: "pts_bbox_head.transformer.encoder.layers.1.attentions.1.deformable_attention.value_proj.bias"
    output: "linear_34"
    name: "node_linear_34"
    op_type: "Add"

  }
  node {
    input: "linear_34"
    input: "val_1094"
    output: "view_110"
    name: "node_view_110"
    op_type: "Reshape"
    attribute {
      name: "allowzero"
      i: 1
      type: INT
    }

  }
  node {
    input: "unsqueeze_49"
    input: "view_103"
    output: "add_46"
    name: "node_add_46"
    op_type: "Add"

  }
  node {
    input: "add_46"
    input: "val_1104"
    output: "view_115"
    name: "node_view_115"
    op_type: "Reshape"
    attribute {
      name: "allowzero"
      i: 1
      type: INT
    }

  }
  node {
    input: "view_110"
    input: "val_1231"
    output: "split_with_sizes_9_split_0"
    name: "node_Split_4550"
    op_type: "Split"
    attribute {
      name: "axis"
      i: 1
      type: INT
    }
  }
  node {
    input: "view_115"
    input: "scalar_tensor_default_6"
    output: "mul_30"
    name: "node_mul_30"
    op_type: "Mul"

  }
  node {
    input: "mul_30"
    input: "scalar_tensor_default_7"
    output: "sub_9"
    name: "node_sub_9"
    op_type: "Sub"

  }
  node {
    input: "split_with_sizes_9_split_0"
    output: "permute_75"
    name: "node_permute_75"
    op_type: "Transpose"
    attribute {
      name: "perm"
      ints: 0
      ints: 2
      ints: 3
      ints: 1
      type: INTS
    }

  }
  node {
    input: "permute_75"
    input: "val_1237"
    output: "view_116"
    name: "node_view_116"
    op_type: "Reshape"
    attribute {
      name: "allowzero"
      i: 1
      type: INT
    }

  }
  node {
    input: "sub_9"
    input: "val_630"
    output: "select_79"
    name: "node_select_79"
    op_type: "Gather"
    attribute {
      name: "axis"
      i: 3
      type: INT
    }

  }
  node {
    input: "select_79"
    output: "permute_76"
    name: "node_permute_76"
    op_type: "Transpose"
    attribute {
      name: "perm"
      ints: 0
      ints: 2
      ints: 1
      ints: 3
      ints: 4
      type: INTS
    }

  }
  node {
    input: "permute_76"
    input: "val_1135"
    output: "view_117"
    name: "node_view_117"
    op_type: "Reshape"
    attribute {
      name: "allowzero"
      i: 1
      type: INT
    }

  }
  node {
    input: "view_116"
    input: "view_117"
    output: "grid_sampler_9"
    name: "node_grid_sampler_9"
    op_type: "GridSample"
    attribute {
      name: "align_corners"
      i: 0
      type: INT
    }
    attribute {
      name: "padding_mode"
      s: "zeros"
      type: STRING
    }
    attribute {
      name: "mode"
      s: "bilinear"
      type: STRING
    }

  }
  node {
    input: "grid_sampler_9"
    input: "val_818"
    output: "val_2020"
    name: "node_Unsqueeze_2009"
    op_type: "Unsqueeze"

  }
  node {
    input: "val_2020"
    input: "val_1149"
    output: "view_119"
    name: "node_view_119"
    op_type: "Reshape"
    attribute {
      name: "allowzero"
      i: 1
      type: INT
    }

  }
  node {
    input: "view_119"
    input: "view_107"
    output: "mul_31"
    name: "node_mul_31"
    op_type: "Mul"

  }
  node {
    input: "mul_31"
    input: "val_818"
    output: "sum_13"
    name: "node_sum_13"
    op_type: "ReduceSum"
    attribute {
      name: "noop_with_empty_axes"
      i: 0
      type: INT
    }
    attribute {
      name: "keepdims"
      i: 0
      type: INT
    }

  }
  node {
    input: "sum_13"
    input: "val_1155"
    output: "view_120"
    name: "node_view_120"
    op_type: "Reshape"
    attribute {
      name: "allowzero"
      i: 1
      type: INT
    }

  }
  node {
    input: "view_120"
    output: "permute_78"
    name: "node_permute_78"
    op_type: "Transpose"
    attribute {
      name: "perm"
      ints: 0
      ints: 2
      ints: 1
      type: INTS
    }

  }
  node {
    input: "permute_78"
    input: "_to_copy_1"
    output: "mul_32"
    name: "node_mul_32"
    op_type: "Mul"

  }
  node {
    input: "add_45"
    input: "mul_32"
    output: "add_47"
    name: "node_add_47"
    op_type: "Add"

  }
  node {
    input: "slice_29"
    input: "val_1851"
    output: "val_2046"
    name: "node_MatMul_2035"
    op_type: "MatMul"

  }
  node {
    input: "val_2046"
    input: "pts_bbox_head.transformer.encoder.layers.1.attentions.1.deformable_attention.value_proj.bias"
    output: "linear_37"
    name: "node_linear_37"
    op_type: "Add"

  }
  node {
    input: "linear_37"
    input: "val_1094"
    output: "view_121"
    name: "node_view_121"
    op_type: "Reshape"
    attribute {
      name: "allowzero"
      i: 1
      type: INT
    }

  }
  node {
    input: "unsqueeze_63"
    input: "view_103"
    output: "add_48"
    name: "node_add_48"
    op_type: "Add"

  }
  node {
    input: "add_48"
    input: "val_1104"
    output: "view_126"
    name: "node_view_126"
    op_type: "Reshape"
    attribute {
      name: "allowzero"
      i: 1
      type: INT
    }

  }
  node {
    input: "view_121"
    input: "val_1231"
    output: "split_with_sizes_10_split_0"
    name: "node_Split_4558"
    op_type: "Split"
    attribute {
      name: "axis"
      i: 1
      type: INT
    }
  }
  node {
    input: "view_126"
    input: "scalar_tensor_default_6"
    output: "mul_33"
    name: "node_mul_33"
    op_type: "Mul"

  }
  node {
    input: "mul_33"
    input: "scalar_tensor_default_7"
    output: "sub_10"
    name: "node_sub_10"
    op_type: "Sub"

  }
  node {
    input: "split_with_sizes_10_split_0"
    output: "permute_83"
    name: "node_permute_83"
    op_type: "Transpose"
    attribute {
      name: "perm"
      ints: 0
      ints: 2
      ints: 3
      ints: 1
      type: INTS
    }

  }
  node {
    input: "permute_83"
    input: "val_1237"
    output: "view_127"
    name: "node_view_127"
    op_type: "Reshape"
    attribute {
      name: "allowzero"
      i: 1
      type: INT
    }

  }
  node {
    input: "sub_10"
    input: "val_630"
    output: "select_86"
    name: "node_select_86"
    op_type: "Gather"
    attribute {
      name: "axis"
      i: 3
      type: INT
    }

  }
  node {
    input: "select_86"
    output: "permute_84"
    name: "node_permute_84"
    op_type: "Transpose"
    attribute {
      name: "perm"
      ints: 0
      ints: 2
      ints: 1
      ints: 3
      ints: 4
      type: INTS
    }

  }
  node {
    input: "permute_84"
    input: "val_1135"
    output: "view_128"
    name: "node_view_128"
    op_type: "Reshape"
    attribute {
      name: "allowzero"
      i: 1
      type: INT
    }

  }
  node {
    input: "view_127"
    input: "view_128"
    output: "grid_sampler_10"
    name: "node_grid_sampler_10"
    op_type: "GridSample"
    attribute {
      name: "align_corners"
      i: 0
      type: INT
    }
    attribute {
      name: "padding_mode"
      s: "zeros"
      type: STRING
    }
    attribute {
      name: "mode"
      s: "bilinear"
      type: STRING
    }

  }
  node {
    input: "grid_sampler_10"
    input: "val_818"
    output: "val_2117"
    name: "node_Unsqueeze_2106"
    op_type: "Unsqueeze"

  }
  node {
    input: "val_2117"
    input: "val_1149"
    output: "view_130"
    name: "node_view_130"
    op_type: "Reshape"
    attribute {
      name: "allowzero"
      i: 1
      type: INT
    }

  }
  node {
    input: "view_130"
    input: "view_107"
    output: "mul_34"
    name: "node_mul_34"
    op_type: "Mul"

  }
  node {
    input: "mul_34"
    input: "val_818"
    output: "sum_14"
    name: "node_sum_14"
    op_type: "ReduceSum"
    attribute {
      name: "noop_with_empty_axes"
      i: 0
      type: INT
    }
    attribute {
      name: "keepdims"
      i: 0
      type: INT
    }

  }
  node {
    input: "sum_14"
    input: "val_1155"
    output: "view_131"
    name: "node_view_131"
    op_type: "Reshape"
    attribute {
      name: "allowzero"
      i: 1
      type: INT
    }

  }
  node {
    input: "view_131"
    output: "permute_86"
    name: "node_permute_86"
    op_type: "Transpose"
    attribute {
      name: "perm"
      ints: 0
      ints: 2
      ints: 1
      type: INTS
    }

  }
  node {
    input: "permute_86"
    input: "_to_copy_2"
    output: "mul_35"
    name: "node_mul_35"
    op_type: "Mul"

  }
  node {
    input: "add_47"
    input: "mul_35"
    output: "add_49"
    name: "node_add_49"
    op_type: "Add"

  }
  node {
    input: "slice_30"
    input: "val_1851"
    output: "val_2143"
    name: "node_MatMul_2132"
    op_type: "MatMul"

  }
  node {
    input: "val_2143"
    input: "pts_bbox_head.transformer.encoder.layers.1.attentions.1.deformable_attention.value_proj.bias"
    output: "linear_40"
    name: "node_linear_40"
    op_type: "Add"

  }
  node {
    input: "linear_40"
    input: "val_1094"
    output: "view_132"
    name: "node_view_132"
    op_type: "Reshape"
    attribute {
      name: "allowzero"
      i: 1
      type: INT
    }

  }
  node {
    input: "unsqueeze_77"
    input: "view_103"
    output: "add_50"
    name: "node_add_50"
    op_type: "Add"

  }
  node {
    input: "add_50"
    input: "val_1104"
    output: "view_137"
    name: "node_view_137"
    op_type: "Reshape"
    attribute {
      name: "allowzero"
      i: 1
      type: INT
    }

  }
  node {
    input: "view_132"
    input: "val_1231"
    output: "split_with_sizes_11_split_0"
    name: "node_Split_4566"
    op_type: "Split"
    attribute {
      name: "axis"
      i: 1
      type: INT
    }
  }
  node {
    input: "view_137"
    input: "scalar_tensor_default_6"
    output: "mul_36"
    name: "node_mul_36"
    op_type: "Mul"

  }
  node {
    input: "mul_36"
    input: "scalar_tensor_default_7"
    output: "sub_11"
    name: "node_sub_11"
    op_type: "Sub"

  }
  node {
    input: "split_with_sizes_11_split_0"
    output: "permute_91"
    name: "node_permute_91"
    op_type: "Transpose"
    attribute {
      name: "perm"
      ints: 0
      ints: 2
      ints: 3
      ints: 1
      type: INTS
    }

  }
  node {
    input: "permute_91"
    input: "val_1237"
    output: "view_138"
    name: "node_view_138"
    op_type: "Reshape"
    attribute {
      name: "allowzero"
      i: 1
      type: INT
    }

  }
  node {
    input: "sub_11"
    input: "val_630"
    output: "select_93"
    name: "node_select_93"
    op_type: "Gather"
    attribute {
      name: "axis"
      i: 3
      type: INT
    }

  }
  node {
    input: "select_93"
    output: "permute_92"
    name: "node_permute_92"
    op_type: "Transpose"
    attribute {
      name: "perm"
      ints: 0
      ints: 2
      ints: 1
      ints: 3
      ints: 4
      type: INTS
    }

  }
  node {
    input: "permute_92"
    input: "val_1135"
    output: "view_139"
    name: "node_view_139"
    op_type: "Reshape"
    attribute {
      name: "allowzero"
      i: 1
      type: INT
    }

  }
  node {
    input: "view_138"
    input: "view_139"
    output: "grid_sampler_11"
    name: "node_grid_sampler_11"
    op_type: "GridSample"
    attribute {
      name: "align_corners"
      i: 0
      type: INT
    }
    attribute {
      name: "padding_mode"
      s: "zeros"
      type: STRING
    }
    attribute {
      name: "mode"
      s: "bilinear"
      type: STRING
    }

  }
  node {
    input: "grid_sampler_11"
    input: "val_818"
    output: "val_2214"
    name: "node_Unsqueeze_2203"
    op_type: "Unsqueeze"

  }
  node {
    input: "val_2214"
    input: "val_1149"
    output: "view_141"
    name: "node_view_141"
    op_type: "Reshape"
    attribute {
      name: "allowzero"
      i: 1
      type: INT
    }

  }
  node {
    input: "view_141"
    input: "view_107"
    output: "mul_37"
    name: "node_mul_37"
    op_type: "Mul"

  }
  node {
    input: "mul_37"
    input: "val_818"
    output: "sum_15"
    name: "node_sum_15"
    op_type: "ReduceSum"
    attribute {
      name: "noop_with_empty_axes"
      i: 0
      type: INT
    }
    attribute {
      name: "keepdims"
      i: 0
      type: INT
    }

  }
  node {
    input: "sum_15"
    input: "val_1155"
    output: "view_142"
    name: "node_view_142"
    op_type: "Reshape"
    attribute {
      name: "allowzero"
      i: 1
      type: INT
    }

  }
  node {
    input: "view_142"
    output: "permute_94"
    name: "node_permute_94"
    op_type: "Transpose"
    attribute {
      name: "perm"
      ints: 0
      ints: 2
      ints: 1
      type: INTS
    }

  }
  node {
    input: "permute_94"
    input: "_to_copy_3"
    output: "mul_38"
    name: "node_mul_38"
    op_type: "Mul"

  }
  node {
    input: "add_49"
    input: "mul_38"
    output: "add_51"
    name: "node_add_51"
    op_type: "Add"

  }
  node {
    input: "slice_31"
    input: "val_1851"
    output: "val_2240"
    name: "node_MatMul_2229"
    op_type: "MatMul"

  }
  node {
    input: "val_2240"
    input: "pts_bbox_head.transformer.encoder.layers.1.attentions.1.deformable_attention.value_proj.bias"
    output: "linear_43"
    name: "node_linear_43"
    op_type: "Add"

  }
  node {
    input: "linear_43"
    input: "val_1094"
    output: "view_143"
    name: "node_view_143"
    op_type: "Reshape"
    attribute {
      name: "allowzero"
      i: 1
      type: INT
    }

  }
  node {
    input: "unsqueeze_91"
    input: "view_103"
    output: "add_52"
    name: "node_add_52"
    op_type: "Add"

  }
  node {
    input: "add_52"
    input: "val_1104"
    output: "view_148"
    name: "node_view_148"
    op_type: "Reshape"
    attribute {
      name: "allowzero"
      i: 1
      type: INT
    }

  }
  node {
    input: "view_143"
    input: "val_1231"
    output: "split_with_sizes_12_split_0"
    name: "node_Split_4574"
    op_type: "Split"
    attribute {
      name: "axis"
      i: 1
      type: INT
    }
  }
  node {
    input: "view_148"
    input: "scalar_tensor_default_6"
    output: "mul_39"
    name: "node_mul_39"
    op_type: "Mul"

  }
  node {
    input: "mul_39"
    input: "scalar_tensor_default_7"
    output: "sub_12"
    name: "node_sub_12"
    op_type: "Sub"

  }
  node {
    input: "split_with_sizes_12_split_0"
    output: "permute_99"
    name: "node_permute_99"
    op_type: "Transpose"
    attribute {
      name: "perm"
      ints: 0
      ints: 2
      ints: 3
      ints: 1
      type: INTS
    }

  }
  node {
    input: "permute_99"
    input: "val_1237"
    output: "view_149"
    name: "node_view_149"
    op_type: "Reshape"
    attribute {
      name: "allowzero"
      i: 1
      type: INT
    }

  }
  node {
    input: "sub_12"
    input: "val_630"
    output: "select_100"
    name: "node_select_100"
    op_type: "Gather"
    attribute {
      name: "axis"
      i: 3
      type: INT
    }

  }
  node {
    input: "select_100"
    output: "permute_100"
    name: "node_permute_100"
    op_type: "Transpose"
    attribute {
      name: "perm"
      ints: 0
      ints: 2
      ints: 1
      ints: 3
      ints: 4
      type: INTS
    }

  }
  node {
    input: "permute_100"
    input: "val_1135"
    output: "view_150"
    name: "node_view_150"
    op_type: "Reshape"
    attribute {
      name: "allowzero"
      i: 1
      type: INT
    }

  }
  node {
    input: "view_149"
    input: "view_150"
    output: "grid_sampler_12"
    name: "node_grid_sampler_12"
    op_type: "GridSample"
    attribute {
      name: "align_corners"
      i: 0
      type: INT
    }
    attribute {
      name: "padding_mode"
      s: "zeros"
      type: STRING
    }
    attribute {
      name: "mode"
      s: "bilinear"
      type: STRING
    }

  }
  node {
    input: "grid_sampler_12"
    input: "val_818"
    output: "val_2311"
    name: "node_Unsqueeze_2300"
    op_type: "Unsqueeze"

  }
  node {
    input: "val_2311"
    input: "val_1149"
    output: "view_152"
    name: "node_view_152"
    op_type: "Reshape"
    attribute {
      name: "allowzero"
      i: 1
      type: INT
    }

  }
  node {
    input: "view_152"
    input: "view_107"
    output: "mul_40"
    name: "node_mul_40"
    op_type: "Mul"

  }
  node {
    input: "mul_40"
    input: "val_818"
    output: "sum_16"
    name: "node_sum_16"
    op_type: "ReduceSum"
    attribute {
      name: "noop_with_empty_axes"
      i: 0
      type: INT
    }
    attribute {
      name: "keepdims"
      i: 0
      type: INT
    }

  }
  node {
    input: "sum_16"
    input: "val_1155"
    output: "view_153"
    name: "node_view_153"
    op_type: "Reshape"
    attribute {
      name: "allowzero"
      i: 1
      type: INT
    }

  }
  node {
    input: "view_153"
    output: "permute_102"
    name: "node_permute_102"
    op_type: "Transpose"
    attribute {
      name: "perm"
      ints: 0
      ints: 2
      ints: 1
      type: INTS
    }

  }
  node {
    input: "permute_102"
    input: "_to_copy_4"
    output: "mul_41"
    name: "node_mul_41"
    op_type: "Mul"

  }
  node {
    input: "add_51"
    input: "mul_41"
    output: "add_53"
    name: "node_add_53"
    op_type: "Add"

  }
  node {
    input: "slice_32"
    input: "val_1851"
    output: "val_2337"
    name: "node_MatMul_2326"
    op_type: "MatMul"

  }
  node {
    input: "val_2337"
    input: "pts_bbox_head.transformer.encoder.layers.1.attentions.1.deformable_attention.value_proj.bias"
    output: "linear_46"
    name: "node_linear_46"
    op_type: "Add"

  }
  node {
    input: "linear_46"
    input: "val_1094"
    output: "view_154"
    name: "node_view_154"
    op_type: "Reshape"
    attribute {
      name: "allowzero"
      i: 1
      type: INT
    }

  }
  node {
    input: "unsqueeze_105"
    input: "view_103"
    output: "add_54"
    name: "node_add_54"
    op_type: "Add"

  }
  node {
    input: "add_54"
    input: "val_1104"
    output: "view_159"
    name: "node_view_159"
    op_type: "Reshape"
    attribute {
      name: "allowzero"
      i: 1
      type: INT
    }

  }
  node {
    input: "view_154"
    input: "val_1231"
    output: "split_with_sizes_13_split_0"
    name: "node_Split_4582"
    op_type: "Split"
    attribute {
      name: "axis"
      i: 1
      type: INT
    }
  }
  node {
    input: "view_159"
    input: "scalar_tensor_default_6"
    output: "mul_42"
    name: "node_mul_42"
    op_type: "Mul"

  }
  node {
    input: "mul_42"
    input: "scalar_tensor_default_7"
    output: "sub_13"
    name: "node_sub_13"
    op_type: "Sub"

  }
  node {
    input: "split_with_sizes_13_split_0"
    output: "permute_107"
    name: "node_permute_107"
    op_type: "Transpose"
    attribute {
      name: "perm"
      ints: 0
      ints: 2
      ints: 3
      ints: 1
      type: INTS
    }

  }
  node {
    input: "permute_107"
    input: "val_1237"
    output: "view_160"
    name: "node_view_160"
    op_type: "Reshape"
    attribute {
      name: "allowzero"
      i: 1
      type: INT
    }

  }
  node {
    input: "sub_13"
    input: "val_630"
    output: "select_107"
    name: "node_select_107"
    op_type: "Gather"
    attribute {
      name: "axis"
      i: 3
      type: INT
    }

  }
  node {
    input: "select_107"
    output: "permute_108"
    name: "node_permute_108"
    op_type: "Transpose"
    attribute {
      name: "perm"
      ints: 0
      ints: 2
      ints: 1
      ints: 3
      ints: 4
      type: INTS
    }

  }
  node {
    input: "permute_108"
    input: "val_1135"
    output: "view_161"
    name: "node_view_161"
    op_type: "Reshape"
    attribute {
      name: "allowzero"
      i: 1
      type: INT
    }

  }
  node {
    input: "view_160"
    input: "view_161"
    output: "grid_sampler_13"
    name: "node_grid_sampler_13"
    op_type: "GridSample"
    attribute {
      name: "align_corners"
      i: 0
      type: INT
    }
    attribute {
      name: "padding_mode"
      s: "zeros"
      type: STRING
    }
    attribute {
      name: "mode"
      s: "bilinear"
      type: STRING
    }

  }
  node {
    input: "grid_sampler_13"
    input: "val_818"
    output: "val_2408"
    name: "node_Unsqueeze_2397"
    op_type: "Unsqueeze"

  }
  node {
    input: "val_2408"
    input: "val_1149"
    output: "view_163"
    name: "node_view_163"
    op_type: "Reshape"
    attribute {
      name: "allowzero"
      i: 1
      type: INT
    }

  }
  node {
    input: "view_163"
    input: "view_107"
    output: "mul_43"
    name: "node_mul_43"
    op_type: "Mul"

  }
  node {
    input: "mul_43"
    input: "val_818"
    output: "sum_17"
    name: "node_sum_17"
    op_type: "ReduceSum"
    attribute {
      name: "noop_with_empty_axes"
      i: 0
      type: INT
    }
    attribute {
      name: "keepdims"
      i: 0
      type: INT
    }

  }
  node {
    input: "sum_17"
    input: "val_1155"
    output: "view_164"
    name: "node_view_164"
    op_type: "Reshape"
    attribute {
      name: "allowzero"
      i: 1
      type: INT
    }

  }
  node {
    input: "view_164"
    output: "permute_110"
    name: "node_permute_110"
    op_type: "Transpose"
    attribute {
      name: "perm"
      ints: 0
      ints: 2
      ints: 1
      type: INTS
    }

  }
  node {
    input: "permute_110"
    input: "_to_copy_5"
    output: "mul_44"
    name: "node_mul_44"
    op_type: "Mul"

  }
  node {
    input: "add_53"
    input: "mul_44"
    output: "add_55"
    name: "node_add_55"
    op_type: "Add"

  }
  node {
    input: "add_55"
    input: "unsqueeze_107"
    output: "div_23"
    name: "node_div_23"
    op_type: "Div"

  }
  node {
    input: "div_23"
    input: "val_2423"
    output: "val_2424"
    name: "node_MatMul_2413"
    op_type: "MatMul"

  }
  node {
    input: "val_2424"
    input: "pts_bbox_head.transformer.encoder.layers.1.attentions.1.output_proj.bias"
    output: "linear_49"
    name: "node_linear_49"
    op_type: "Add"

  }
  node {
    input: "layer_norm_4"
    input: "linear_49"
    output: "add_56"
    name: "node_add_56"
    op_type: "Add"

  }
  node {
    input: "add_56"
    input: "pts_bbox_head.transformer.encoder.layers.1.norms.1.weight"
    input: "pts_bbox_head.transformer.encoder.layers.1.norms.1.bias"
    output: "layer_norm_5"
    name: "node_layer_norm_5"
    op_type: "LayerNormalization"
    attribute {
      name: "stash_type"
      i: 1
      type: INT
    }
    attribute {
      name: "epsilon"
      f: 1e-05
      type: FLOAT
    }
    attribute {
      name: "axis"
      i: -1
      type: INT
    }

  }
  node {
    input: "layer_norm_5"
    input: "val_2427"
    output: "val_2428"
    name: "node_MatMul_2415"
    op_type: "MatMul"

  }
  node {
    input: "val_2428"
    input: "pts_bbox_head.transformer.encoder.layers.1.ffns.0.layers.0.0.bias"
    output: "linear_50"
    name: "node_linear_50"
    op_type: "Add"

  }
  node {
    input: "linear_50"
    output: "relu_51"
    name: "node_relu_51"
    op_type: "Relu"

  }
  node {
    input: "relu_51"
    input: "val_2429"
    output: "val_2430"
    name: "node_MatMul_2417"
    op_type: "MatMul"

  }
  node {
    input: "val_2430"
    input: "pts_bbox_head.transformer.encoder.layers.1.ffns.0.layers.1.bias"
    output: "linear_51"
    name: "node_linear_51"
    op_type: "Add"

  }
  node {
    input: "layer_norm_5"
    input: "linear_51"
    output: "add_57"
    name: "node_add_57"
    op_type: "Add"

  }
  node {
    input: "add_57"
    input: "pts_bbox_head.transformer.encoder.layers.1.norms.2.weight"
    input: "pts_bbox_head.transformer.encoder.layers.1.norms.2.bias"
    output: "layer_norm_6"
    name: "node_layer_norm_6"
    op_type: "LayerNormalization"
    attribute {
      name: "stash_type"
      i: 1
      type: INT
    }
    attribute {
      name: "epsilon"
      f: 1e-05
      type: FLOAT
    }
    attribute {
      name: "axis"
      i: -1
      type: INT
    }

  }
  node {
    input: "layer_norm_6"
    input: "expand_3"
    output: "add_58"
    name: "node_add_58"
    op_type: "Add"

  }
  node {
    input: "add_58"
    input: "zeros_like"
    output: "cat_5"
    name: "node_cat_5"
    op_type: "Concat"
    attribute {
      name: "axis"
      i: -1
      type: INT
    }

  }
  node {
    input: "layer_norm_6"
    input: "val_2435"
    output: "val_2436"
    name: "node_MatMul_2421"
    op_type: "MatMul"

  }
  node {
    input: "val_2436"
    input: "pts_bbox_head.transformer.encoder.layers.2.attentions.0.value_proj.bias"
    output: "linear_52"
    name: "node_linear_52"
    op_type: "Add"

  }
  node {
    input: "linear_52"
    input: "val_1094"
    output: "view_165"
    name: "node_view_165"
    op_type: "Reshape"
    attribute {
      name: "allowzero"
      i: 1
      type: INT
    }

  }
  node {
    input: "cat_5"
    input: "val_2443"
    output: "val_2444"
    name: "node_MatMul_2429"
    op_type: "MatMul"

  }
  node {
    input: "val_2444"
    input: "pts_bbox_head.transformer.encoder.layers.2.attentions.0.sampling_offsets.bias"
    output: "linear_53"
    name: "node_linear_53"
    op_type: "Add"

  }
  node {
    input: "linear_53"
    input: "val_1104"
    output: "view_166"
    name: "node_view_166"
    op_type: "Reshape"
    attribute {
      name: "allowzero"
      i: 1
      type: INT
    }

  }
  node {
    input: "cat_5"
    input: "val_2453"
    output: "val_2454"
    name: "node_MatMul_2439"
    op_type: "MatMul"

  }
  node {
    input: "val_2454"
    input: "pts_bbox_head.transformer.encoder.layers.2.attentions.0.attention_weights.bias"
    output: "linear_54"
    name: "node_linear_54"
    op_type: "Add"

  }
  node {
    input: "linear_54"
    input: "val_1112"
    output: "view_167"
    name: "node_view_167"
    op_type: "Reshape"
    attribute {
      name: "allowzero"
      i: 1
      type: INT
    }

  }
  node {
    input: "view_167"
    output: "softmax_14"
    name: "node_softmax_14"
    op_type: "Softmax"
    attribute {
      name: "axis"
      i: -1
      type: INT
    }

  }
  node {
    input: "softmax_14"
    input: "val_1119"
    output: "view_168"
    name: "node_view_168"
    op_type: "Reshape"
    attribute {
      name: "allowzero"
      i: 1
      type: INT
    }

  }
  node {
    input: "view_166"
    input: "unsqueeze_20"
    output: "div_24"
    name: "node_div_24"
    op_type: "Div"

  }
  node {
    input: "unsqueeze_204"
    input: "div_24"
    output: "add_59"
    name: "node_add_59"
    op_type: "Add"

  }
  node {
    input: "view_165"
    input: "val_1123"
    output: "split_with_sizes_14_split_0"
    name: "node_Split_4589"
    op_type: "Split"
    attribute {
      name: "axis"
      i: 1
      type: INT
    }
  }
  node {
    input: "add_59"
    input: "scalar_tensor_default_6"
    output: "mul_45"
    name: "node_mul_45"
    op_type: "Mul"

  }
  node {
    input: "mul_45"
    input: "scalar_tensor_default_7"
    output: "sub_14"
    name: "node_sub_14"
    op_type: "Sub"

  }
  node {
    input: "split_with_sizes_14_split_0"
    output: "permute_112"
    name: "node_permute_112"
    op_type: "Transpose"
    attribute {
      name: "perm"
      ints: 0
      ints: 2
      ints: 3
      ints: 1
      type: INTS
    }

  }
  node {
    input: "permute_112"
    input: "val_1129"
    output: "view_169"
    name: "node_view_169"
    op_type: "Reshape"
    attribute {
      name: "allowzero"
      i: 1
      type: INT
    }

  }
  node {
    input: "sub_14"
    input: "val_630"
    output: "select_109"
    name: "node_select_109"
    op_type: "Gather"
    attribute {
      name: "axis"
      i: 3
      type: INT
    }

  }
  node {
    input: "select_109"
    output: "permute_113"
    name: "node_permute_113"
    op_type: "Transpose"
    attribute {
      name: "perm"
      ints: 0
      ints: 2
      ints: 1
      ints: 3
      ints: 4
      type: INTS
    }

  }
  node {
    input: "permute_113"
    input: "val_1135"
    output: "view_170"
    name: "node_view_170"
    op_type: "Reshape"
    attribute {
      name: "allowzero"
      i: 1
      type: INT
    }

  }
  node {
    input: "view_169"
    input: "view_170"
    output: "grid_sampler_14"
    name: "node_grid_sampler_14"
    op_type: "GridSample"
    attribute {
      name: "align_corners"
      i: 0
      type: INT
    }
    attribute {
      name: "padding_mode"
      s: "zeros"
      type: STRING
    }
    attribute {
      name: "mode"
      s: "bilinear"
      type: STRING
    }

  }
  node {
    input: "view_168"
…
      name: "img_backbone.layer3.5.conv3.weight"
  }
  initializer {
      dims: 512
      dims: 1024
      dims: 1
      dims: 1
      data_type: 1
      name: "img_backbone.layer4.0.conv1.weight"
  }
  initializer {
      dims: 512
      dims: 512
      dims: 3
      dims: 3
      data_type: 1
      name: "img_backbone.layer4.0.conv2.weight"
  }
  initializer {
      dims: 2048
      dims: 512
      dims: 1
      dims: 1
      data_type: 1
      name: "img_backbone.layer4.0.conv3.weight"
  }
  initializer {
      dims: 2048
      dims: 1024
      dims: 1
      dims: 1
      data_type: 1
      name: "img_backbone.layer4.0.downsample.0.weight"
  }
  initializer {
      dims: 512
      dims: 2048
      dims: 1
      dims: 1
      data_type: 1
      name: "img_backbone.layer4.1.conv1.weight"
  }
  initializer {
      dims: 512
      dims: 512
      dims: 3
      dims: 3
      data_type: 1
      name: "img_backbone.layer4.1.conv2.weight"
  }
  initializer {
      dims: 2048
      dims: 512
      dims: 1
      dims: 1
      data_type: 1
      name: "img_backbone.layer4.1.conv3.weight"
  }
  initializer {
      dims: 512
      dims: 2048
      dims: 1
      dims: 1
      data_type: 1
      name: "img_backbone.layer4.2.conv1.weight"
  }
  initializer {
      dims: 512
      dims: 512
      dims: 3
      dims: 3
      data_type: 1
      name: "img_backbone.layer4.2.conv2.weight"
  }
  initializer {
      dims: 2048
      dims: 512
      dims: 1
      dims: 1
      data_type: 1
      name: "img_backbone.layer4.2.conv3.weight"
  }
  initializer {
      dims: 256
      dims: 2048
      dims: 1
      dims: 1
      data_type: 1
      name: "img_neck.lateral_convs.0.conv.weight"
  }
  initializer {
      dims: 256
      data_type: 1
      name: "img_neck.lateral_convs.0.conv.bias"
  }
  initializer {
      dims: 256
      dims: 256
      dims: 3
      dims: 3
      data_type: 1
      name: "img_neck.fpn_convs.0.conv.weight"
  }
  initializer {
      dims: 256
      data_type: 1
      name: "img_neck.fpn_convs.0.conv.bias"
  }
  initializer {
      dims: 2500
      dims: 256
      data_type: 1
      name: "pts_bbox_head.bev_embedding.weight"
  }
  initializer {
      dims: 900
      dims: 512
      data_type: 1
      name: "pts_bbox_head.query_embedding.weight"
  }
  initializer {
      dims: 128
      data_type: 1
      name: "pts_bbox_head.transformer.encoder.layers.0.attentions.0.sampling_offsets.bias"
  }
  initializer {
      dims: 64
      data_type: 1
      name: "pts_bbox_head.transformer.encoder.layers.0.attentions.0.attention_weights.bias"
  }
  initializer {
      dims: 256
      data_type: 1
      name: "pts_bbox_head.transformer.encoder.layers.0.attentions.0.value_proj.bias"
  }
  initializer {
      dims: 256
      data_type: 1
      name: "pts_bbox_head.transformer.encoder.layers.0.attentions.0.output_proj.bias"
  }
  initializer {
      dims: 128
      dims: 256
      data_type: 1
      name: "pts_bbox_head.transformer.encoder.layers.0.attentions.1.deformable_attention.sampling_offsets.weight"
  }
  initializer {
      dims: 128
      data_type: 1
      name: "pts_bbox_head.transformer.encoder.layers.0.attentions.1.deformable_attention.sampling_offsets.bias"
  }
  initializer {
      dims: 64
      dims: 256
      data_type: 1
      name: "pts_bbox_head.transformer.encoder.layers.0.attentions.1.deformable_attention.attention_weights.weight"
  }
  initializer {
      dims: 64
      data_type: 1
      name: "pts_bbox_head.transformer.encoder.layers.0.attentions.1.deformable_attention.attention_weights.bias"
  }
  initializer {
      dims: 256
      dims: 256
      data_type: 1
      name: "pts_bbox_head.transformer.encoder.layers.0.attentions.1.deformable_attention.value_proj.weight"
  }
  initializer {
      dims: 256
      data_type: 1
      name: "pts_bbox_head.transformer.encoder.layers.0.attentions.1.deformable_attention.value_proj.bias"
  }
  initializer {
      dims: 256
      data_type: 1
      name: "pts_bbox_head.transformer.encoder.layers.0.attentions.1.output_proj.bias"
  }
  initializer {
      dims: 512
      data_type: 1
      name: "pts_bbox_head.transformer.encoder.layers.0.ffns.0.layers.0.0.bias"
  }
  initializer {
      dims: 256
      data_type: 1
      name: "pts_bbox_head.transformer.encoder.layers.0.ffns.0.layers.1.bias"
  }
  initializer {
      dims: 256
      data_type: 1
      name: "pts_bbox_head.transformer.encoder.layers.0.norms.0.weight"
  }
  initializer {
      dims: 256
      data_type: 1
      name: "pts_bbox_head.transformer.encoder.layers.0.norms.0.bias"
  }
  initializer {
      dims: 256
      data_type: 1
      name: "pts_bbox_head.transformer.encoder.layers.0.norms.1.weight"
  }
  initializer {
      dims: 256
      data_type: 1
      name: "pts_bbox_head.transformer.encoder.layers.0.norms.1.bias"
  }
  initializer {
      dims: 256
      data_type: 1
      name: "pts_bbox_head.transformer.encoder.layers.0.norms.2.weight"
  }
  initializer {
      dims: 256
      data_type: 1
      name: "pts_bbox_head.transformer.encoder.layers.0.norms.2.bias"
  }
  initializer {
      dims: 128
      data_type: 1
      name: "pts_bbox_head.transformer.encoder.layers.1.attentions.0.sampling_offsets.bias"
  }
  initializer {
      dims: 64
      data_type: 1
      name: "pts_bbox_head.transformer.encoder.layers.1.attentions.0.attention_weights.bias"
  }
  initializer {
      dims: 256
      data_type: 1
      name: "pts_bbox_head.transformer.encoder.layers.1.attentions.0.value_proj.bias"
  }
  initializer {
      dims: 256
      data_type: 1
      name: "pts_bbox_head.transformer.encoder.layers.1.attentions.0.output_proj.bias"
  }
  initializer {
      dims: 128
      dims: 256
      data_type: 1
      name: "pts_bbox_head.transformer.encoder.layers.1.attentions.1.deformable_attention.sampling_offsets.weight"
  }
  initializer {
      dims: 128
      data_type: 1
      name: "pts_bbox_head.transformer.encoder.layers.1.attentions.1.deformable_attention.sampling_offsets.bias"
  }
  initializer {
      dims: 64
      dims: 256
      data_type: 1
      name: "pts_bbox_head.transformer.encoder.layers.1.attentions.1.deformable_attention.attention_weights.weight"
  }
  initializer {
      dims: 64
      data_type: 1
      name: "pts_bbox_head.transformer.encoder.layers.1.attentions.1.deformable_attention.attention_weights.bias"
  }
  initializer {
      dims: 256
      dims: 256
      data_type: 1
      name: "pts_bbox_head.transformer.encoder.layers.1.attentions.1.deformable_attention.value_proj.weight"
  }
  initializer {
      dims: 256
      data_type: 1
      name: "pts_bbox_head.transformer.encoder.layers.1.attentions.1.deformable_attention.value_proj.bias"
  }
  initializer {
      dims: 256
      data_type: 1
      name: "pts_bbox_head.transformer.encoder.layers.1.attentions.1.output_proj.bias"
  }
  initializer {
      dims: 512
      data_type: 1
      name: "pts_bbox_head.transformer.encoder.layers.1.ffns.0.layers.0.0.bias"
  }
  initializer {
      dims: 256
      data_type: 1
      name: "pts_bbox_head.transformer.encoder.layers.1.ffns.0.layers.1.bias"
  }
  initializer {
      dims: 256
      data_type: 1
      name: "pts_bbox_head.transformer.encoder.layers.1.norms.0.weight"
  }
  initializer {
      dims: 256
      data_type: 1
      name: "pts_bbox_head.transformer.encoder.layers.1.norms.0.bias"
  }
  initializer {
      dims: 256
      data_type: 1
      name: "pts_bbox_head.transformer.encoder.layers.1.norms.1.weight"
  }
  initializer {
      dims: 256
      data_type: 1
      name: "pts_bbox_head.transformer.encoder.layers.1.norms.1.bias"
  }
  initializer {
      dims: 256
      data_type: 1
      name: "pts_bbox_head.transformer.encoder.layers.1.norms.2.weight"
  }
  initializer {
      dims: 256
      data_type: 1
      name: "pts_bbox_head.transformer.encoder.layers.1.norms.2.bias"
  }
  initializer {
      dims: 128
      data_type: 1
      name: "pts_bbox_head.transformer.encoder.layers.2.attentions.0.sampling_offsets.bias"
  }
  initializer {
      dims: 64
      data_type: 1
      name: "pts_bbox_head.transformer.encoder.layers.2.attentions.0.attention_weights.bias"
  }
  initializer {
      dims: 256
      data_type: 1
      name: "pts_bbox_head.transformer.encoder.layers.2.attentions.0.value_proj.bias"
  }
  initializer {
      dims: 256
      data_type: 1
      name: "pts_bbox_head.transformer.encoder.layers.2.attentions.0.output_proj.bias"
  }
  initializer {
      dims: 128
      dims: 256
      data_type: 1
      name: "pts_bbox_head.transformer.encoder.layers.2.attentions.1.deformable_attention.sampling_offsets.weight"
  }
  initializer {
      dims: 128
      data_type: 1
      name: "pts_bbox_head.transformer.encoder.layers.2.attentions.1.deformable_attention.sampling_offsets.bias"
  }
  initializer {
      dims: 64
      dims: 256
      data_type: 1
      name: "pts_bbox_head.transformer.encoder.layers.2.attentions.1.deformable_attention.attention_weights.weight"
  }
  initializer {
      dims: 64
      data_type: 1
      name: "pts_bbox_head.transformer.encoder.layers.2.attentions.1.deformable_attention.attention_weights.bias"
  }
  initializer {
      dims: 256
      dims: 256
      data_type: 1
      name: "pts_bbox_head.transformer.encoder.layers.2.attentions.1.deformable_attention.value_proj.weight"
  }
  initializer {
      dims: 256
      data_type: 1
      name: "pts_bbox_head.transformer.encoder.layers.2.attentions.1.deformable_attention.value_proj.bias"
  }
  initializer {
      dims: 256
      data_type: 1
      name: "pts_bbox_head.transformer.encoder.layers.2.attentions.1.output_proj.bias"
  }
  initializer {
      dims: 512
      data_type: 1
      name: "pts_bbox_head.transformer.encoder.layers.2.ffns.0.layers.0.0.bias"
  }
  initializer {
      dims: 256
      data_type: 1
      name: "pts_bbox_head.transformer.encoder.layers.2.ffns.0.layers.1.bias"
  }
  initializer {
      dims: 256
      data_type: 1
      name: "pts_bbox_head.transformer.encoder.layers.2.norms.0.weight"
  }
  initializer {
      dims: 256
      data_type: 1
      name: "pts_bbox_head.transformer.encoder.layers.2.norms.0.bias"
  }
  initializer {
      dims: 256
      data_type: 1
      name: "pts_bbox_head.transformer.encoder.layers.2.norms.1.weight"
  }
  initializer {
      dims: 256
      data_type: 1
      name: "pts_bbox_head.transformer.encoder.layers.2.norms.1.bias"
  }
  initializer {
      dims: 256
      data_type: 1
      name: "pts_bbox_head.transformer.encoder.layers.2.norms.2.weight"
  }
  initializer {
      dims: 256
      data_type: 1
      name: "pts_bbox_head.transformer.encoder.layers.2.norms.2.bias"
  }
  initializer {
      dims: 768
      dims: 256
      data_type: 1
      name: "pts_bbox_head.transformer.decoder.layers.0.attentions.0.attn.in_proj_weight"
  }
  initializer {
      dims: 768
      data_type: 1
      name: "pts_bbox_head.transformer.decoder.layers.0.attentions.0.attn.in_proj_bias"
  }
  initializer {
      dims: 256
      dims: 256
      data_type: 1
      name: "pts_bbox_head.transformer.decoder.layers.0.attentions.0.attn.out_proj.weight"
  }
  initializer {
      dims: 256
      data_type: 1
      name: "pts_bbox_head.transformer.decoder.layers.0.attentions.0.attn.out_proj.bias"
  }
  initializer {
      dims: 64
      data_type: 1
      name: "pts_bbox_head.transformer.decoder.layers.0.attentions.1.sampling_offsets.bias"
  }
  initializer {
      dims: 32
      data_type: 1
      name: "pts_bbox_head.transformer.decoder.layers.0.attentions.1.attention_weights.bias"
  }
  initializer {
      dims: 256
      data_type: 1
      name: "pts_bbox_head.transformer.decoder.layers.0.attentions.1.value_proj.bias"
  }
  initializer {
      dims: 256
      data_type: 1
      name: "pts_bbox_head.transformer.decoder.layers.0.attentions.1.output_proj.bias"
  }
  initializer {
      dims: 512
      data_type: 1
      name: "pts_bbox_head.transformer.decoder.layers.0.ffns.0.layers.0.0.bias"
  }
  initializer {
      dims: 256
      data_type: 1
      name: "pts_bbox_head.transformer.decoder.layers.0.ffns.0.layers.1.bias"
  }
  initializer {
      dims: 256
      data_type: 1
      name: "pts_bbox_head.transformer.decoder.layers.0.norms.0.weight"
  }
  initializer {
      dims: 256
      data_type: 1
      name: "pts_bbox_head.transformer.decoder.layers.0.norms.0.bias"
  }
  initializer {
      dims: 256
      data_type: 1
      name: "pts_bbox_head.transformer.decoder.layers.0.norms.1.weight"
  }
  initializer {
      dims: 256
      data_type: 1
      name: "pts_bbox_head.transformer.decoder.layers.0.norms.1.bias"
  }
  initializer {
      dims: 256
      data_type: 1
      name: "pts_bbox_head.transformer.decoder.layers.0.norms.2.weight"
  }
  initializer {
      dims: 256
      data_type: 1
      name: "pts_bbox_head.transformer.decoder.layers.0.norms.2.bias"
  }
  initializer {
      dims: 768
      dims: 256
      data_type: 1
      name: "pts_bbox_head.transformer.decoder.layers.1.attentions.0.attn.in_proj_weight"
  }
  initializer {
      dims: 768
      data_type: 1
      name: "pts_bbox_head.transformer.decoder.layers.1.attentions.0.attn.in_proj_bias"
  }
  initializer {
      dims: 256
      dims: 256
      data_type: 1
      name: "pts_bbox_head.transformer.decoder.layers.1.attentions.0.attn.out_proj.weight"
  }
  initializer {
      dims: 256
      data_type: 1
      name: "pts_bbox_head.transformer.decoder.layers.1.attentions.0.attn.out_proj.bias"
  }
  initializer {
      dims: 64
      data_type: 1
      name: "pts_bbox_head.transformer.decoder.layers.1.attentions.1.sampling_offsets.bias"
  }
  initializer {
      dims: 32
      data_type: 1
      name: "pts_bbox_head.transformer.decoder.layers.1.attentions.1.attention_weights.bias"
  }
  initializer {
      dims: 256
      data_type: 1
      name: "pts_bbox_head.transformer.decoder.layers.1.attentions.1.value_proj.bias"
  }
  initializer {
      dims: 256
      data_type: 1
      name: "pts_bbox_head.transformer.decoder.layers.1.attentions.1.output_proj.bias"
  }
  initializer {
      dims: 512
      data_type: 1
      name: "pts_bbox_head.transformer.decoder.layers.1.ffns.0.layers.0.0.bias"
  }
  initializer {
      dims: 256
      data_type: 1
      name: "pts_bbox_head.transformer.decoder.layers.1.ffns.0.layers.1.bias"
  }
  initializer {
      dims: 256
      data_type: 1
      name: "pts_bbox_head.transformer.decoder.layers.1.norms.0.weight"
  }
  initializer {
      dims: 256
      data_type: 1
      name: "pts_bbox_head.transformer.decoder.layers.1.norms.0.bias"
  }
  initializer {
      dims: 256
      data_type: 1
      name: "pts_bbox_head.transformer.decoder.layers.1.norms.1.weight"
  }
  initializer {
      dims: 256
      data_type: 1
      name: "pts_bbox_head.transformer.decoder.layers.1.norms.1.bias"
  }
  initializer {
      dims: 256
      data_type: 1
      name: "pts_bbox_head.transformer.decoder.layers.1.norms.2.weight"
  }
  initializer {
      dims: 256
      data_type: 1
      name: "pts_bbox_head.transformer.decoder.layers.1.norms.2.bias"
  }
  initializer {
      dims: 768
      dims: 256
      data_type: 1
      name: "pts_bbox_head.transformer.decoder.layers.2.attentions.0.attn.in_proj_weight"
  }
  initializer {
      dims: 768
      data_type: 1
      name: "pts_bbox_head.transformer.decoder.layers.2.attentions.0.attn.in_proj_bias"
  }
  initializer {
      dims: 256
      dims: 256
      data_type: 1
      name: "pts_bbox_head.transformer.decoder.layers.2.attentions.0.attn.out_proj.weight"
  }
  initializer {
      dims: 256
      data_type: 1
      name: "pts_bbox_head.transformer.decoder.layers.2.attentions.0.attn.out_proj.bias"
  }
  initializer {
      dims: 64
      data_type: 1
      name: "pts_bbox_head.transformer.decoder.layers.2.attentions.1.sampling_offsets.bias"
  }
  initializer {
      dims: 32
      data_type: 1
      name: "pts_bbox_head.transformer.decoder.layers.2.attentions.1.attention_weights.bias"
  }
  initializer {
      dims: 256
      data_type: 1
      name: "pts_bbox_head.transformer.decoder.layers.2.attentions.1.value_proj.bias"
  }
  initializer {
      dims: 256
      data_type: 1
      name: "pts_bbox_head.transformer.decoder.layers.2.attentions.1.output_proj.bias"
  }
  initializer {
      dims: 512
      data_type: 1
      name: "pts_bbox_head.transformer.decoder.layers.2.ffns.0.layers.0.0.bias"
  }
  initializer {
      dims: 256
      data_type: 1
      name: "pts_bbox_head.transformer.decoder.layers.2.ffns.0.layers.1.bias"
  }
  initializer {
      dims: 256
      data_type: 1
      name: "pts_bbox_head.transformer.decoder.layers.2.norms.0.weight"
  }
  initializer {
      dims: 256
      data_type: 1
      name: "pts_bbox_head.transformer.decoder.layers.2.norms.0.bias"
  }
  initializer {
      dims: 256
      data_type: 1
      name: "pts_bbox_head.transformer.decoder.layers.2.norms.1.weight"
  }
  initializer {
      dims: 256
      data_type: 1
      name: "pts_bbox_head.transformer.decoder.layers.2.norms.1.bias"
  }
  initializer {
      dims: 256
      data_type: 1
      name: "pts_bbox_head.transformer.decoder.layers.2.norms.2.weight"
  }
  initializer {
      dims: 256
      data_type: 1
      name: "pts_bbox_head.transformer.decoder.layers.2.norms.2.bias"
  }
  initializer {
      dims: 768
      dims: 256
      data_type: 1
      name: "pts_bbox_head.transformer.decoder.layers.3.attentions.0.attn.in_proj_weight"
  }
  initializer {
      dims: 768
      data_type: 1
      name: "pts_bbox_head.transformer.decoder.layers.3.attentions.0.attn.in_proj_bias"
  }
  initializer {
      dims: 256
      dims: 256
      data_type: 1
      name: "pts_bbox_head.transformer.decoder.layers.3.attentions.0.attn.out_proj.weight"
  }
  initializer {
      dims: 256
      data_type: 1
      name: "pts_bbox_head.transformer.decoder.layers.3.attentions.0.attn.out_proj.bias"
  }
  initializer {
      dims: 64
      data_type: 1
      name: "pts_bbox_head.transformer.decoder.layers.3.attentions.1.sampling_offsets.bias"
  }
  initializer {
      dims: 32
      data_type: 1
      name: "pts_bbox_head.transformer.decoder.layers.3.attentions.1.attention_weights.bias"
  }
  initializer {
      dims: 256
      data_type: 1
      name: "pts_bbox_head.transformer.decoder.layers.3.attentions.1.value_proj.bias"
  }
  initializer {
      dims: 256
      data_type: 1
      name: "pts_bbox_head.transformer.decoder.layers.3.attentions.1.output_proj.bias"
  }
  initializer {
      dims: 512
      data_type: 1
      name: "pts_bbox_head.transformer.decoder.layers.3.ffns.0.layers.0.0.bias"
  }
  initializer {
      dims: 256
      data_type: 1
      name: "pts_bbox_head.transformer.decoder.layers.3.ffns.0.layers.1.bias"
  }
  initializer {
      dims: 256
      data_type: 1
      name: "pts_bbox_head.transformer.decoder.layers.3.norms.0.weight"
  }
  initializer {
      dims: 256
      data_type: 1
      name: "pts_bbox_head.transformer.decoder.layers.3.norms.0.bias"
  }
  initializer {
      dims: 256
      data_type: 1
      name: "pts_bbox_head.transformer.decoder.layers.3.norms.1.weight"
  }
  initializer {
      dims: 256
      data_type: 1
      name: "pts_bbox_head.transformer.decoder.layers.3.norms.1.bias"
  }
  initializer {
      dims: 256
      data_type: 1
      name: "pts_bbox_head.transformer.decoder.layers.3.norms.2.weight"
  }
  initializer {
      dims: 256
      data_type: 1
      name: "pts_bbox_head.transformer.decoder.layers.3.norms.2.bias"
  }
  initializer {
      dims: 768
      dims: 256
      data_type: 1
      name: "pts_bbox_head.transformer.decoder.layers.4.attentions.0.attn.in_proj_weight"
  }
  initializer {
      dims: 768
      data_type: 1
      name: "pts_bbox_head.transformer.decoder.layers.4.attentions.0.attn.in_proj_bias"
  }
  initializer {
      dims: 256
      dims: 256
      data_type: 1
      name: "pts_bbox_head.transformer.decoder.layers.4.attentions.0.attn.out_proj.weight"
  }
  initializer {
      dims: 256
      data_type: 1
      name: "pts_bbox_head.transformer.decoder.layers.4.attentions.0.attn.out_proj.bias"
  }
  initializer {
      dims: 64
      data_type: 1
      name: "pts_bbox_head.transformer.decoder.layers.4.attentions.1.sampling_offsets.bias"
  }
  initializer {
      dims: 32
      data_type: 1
      name: "pts_bbox_head.transformer.decoder.layers.4.attentions.1.attention_weights.bias"
  }
  initializer {
      dims: 256
      data_type: 1
      name: "pts_bbox_head.transformer.decoder.layers.4.attentions.1.value_proj.bias"
  }
  initializer {
      dims: 256
      data_type: 1
      name: "pts_bbox_head.transformer.decoder.layers.4.attentions.1.output_proj.bias"
  }
  initializer {
      dims: 512
      data_type: 1
      name: "pts_bbox_head.transformer.decoder.layers.4.ffns.0.layers.0.0.bias"
  }
  initializer {
      dims: 256
      data_type: 1
      name: "pts_bbox_head.transformer.decoder.layers.4.ffns.0.layers.1.bias"
  }
  initializer {
      dims: 256
      data_type: 1
      name: "pts_bbox_head.transformer.decoder.layers.4.norms.0.weight"
  }
  initializer {
      dims: 256
      data_type: 1
      name: "pts_bbox_head.transformer.decoder.layers.4.norms.0.bias"
  }
  initializer {
      dims: 256
      data_type: 1
      name: "pts_bbox_head.transformer.decoder.layers.4.norms.1.weight"
  }
  initializer {
      dims: 256
      data_type: 1
      name: "pts_bbox_head.transformer.decoder.layers.4.norms.1.bias"
  }
  initializer {
      dims: 256
      data_type: 1
      name: "pts_bbox_head.transformer.decoder.layers.4.norms.2.weight"
  }
  initializer {
      dims: 256
      data_type: 1
      name: "pts_bbox_head.transformer.decoder.layers.4.norms.2.bias"
  }
  initializer {
      dims: 768
      dims: 256
      data_type: 1
      name: "pts_bbox_head.transformer.decoder.layers.5.attentions.0.attn.in_proj_weight"
  }
  initializer {
      dims: 768
      data_type: 1
      name: "pts_bbox_head.transformer.decoder.layers.5.attentions.0.attn.in_proj_bias"
  }
  initializer {
      dims: 256
      dims: 256
      data_type: 1
      name: "pts_bbox_head.transformer.decoder.layers.5.attentions.0.attn.out_proj.weight"
  }
  initializer {
      dims: 256
      data_type: 1
      name: "pts_bbox_head.transformer.decoder.layers.5.attentions.0.attn.out_proj.bias"
  }
  initializer {
      dims: 64
      data_type: 1
      name: "pts_bbox_head.transformer.decoder.layers.5.attentions.1.sampling_offsets.bias"
  }
  initializer {
      dims: 32
      data_type: 1
      name: "pts_bbox_head.transformer.decoder.layers.5.attentions.1.attention_weights.bias"
  }
  initializer {
      dims: 256
      data_type: 1
      name: "pts_bbox_head.transformer.decoder.layers.5.attentions.1.value_proj.bias"
  }
  initializer {
      dims: 256
      data_type: 1
      name: "pts_bbox_head.transformer.decoder.layers.5.attentions.1.output_proj.bias"
  }
  initializer {
      dims: 512
      data_type: 1
      name: "pts_bbox_head.transformer.decoder.layers.5.ffns.0.layers.0.0.bias"
  }
  initializer {
      dims: 256
      data_type: 1
      name: "pts_bbox_head.transformer.decoder.layers.5.ffns.0.layers.1.bias"
  }
  initializer {
      dims: 256
      data_type: 1
      name: "pts_bbox_head.transformer.decoder.layers.5.norms.0.weight"
  }
  initializer {
      dims: 256
      data_type: 1
      name: "pts_bbox_head.transformer.decoder.layers.5.norms.0.bias"
  }
  initializer {
      dims: 256
      data_type: 1
      name: "pts_bbox_head.transformer.decoder.layers.5.norms.1.weight"
  }
  initializer {
      dims: 256
      data_type: 1
      name: "pts_bbox_head.transformer.decoder.layers.5.norms.1.bias"
  }
  initializer {
      dims: 256
      data_type: 1
      name: "pts_bbox_head.transformer.decoder.layers.5.norms.2.weight"
  }
  initializer {
      dims: 256
      data_type: 1
      name: "pts_bbox_head.transformer.decoder.layers.5.norms.2.bias"
  }
  initializer {
      dims: 256
      dims: 128
      data_type: 1
      name: "pts_bbox_head.transformer.can_bus_mlp.2.weight"
  }
  initializer {
      dims: 256
      data_type: 1
      name: "pts_bbox_head.transformer.can_bus_mlp.2.bias"
  }
  initializer {
      dims: 256
      data_type: 1
      name: "pts_bbox_head.transformer.can_bus_mlp.norm.weight"
  }
  initializer {
      dims: 256
      data_type: 1
      name: "pts_bbox_head.transformer.can_bus_mlp.norm.bias"
  }
  initializer {
      dims: 3
      data_type: 1
      name: "pts_bbox_head.transformer.reference_points.bias"
  }
  initializer {
      dims: 256
      data_type: 1
      name: "pts_bbox_head.cls_branches.5.0.bias"
  }
  initializer {
      dims: 256
      data_type: 1
      name: "pts_bbox_head.cls_branches.5.1.weight"
  }
  initializer {
      dims: 256
      data_type: 1
      name: "pts_bbox_head.cls_branches.5.1.bias"
  }
  initializer {
      dims: 256
      data_type: 1
      name: "pts_bbox_head.cls_branches.5.3.bias"
  }
  initializer {
      dims: 256
      data_type: 1
      name: "pts_bbox_head.cls_branches.5.4.weight"
  }
  initializer {
      dims: 256
      data_type: 1
      name: "pts_bbox_head.cls_branches.5.4.bias"
  }
  initializer {
      dims: 10
      data_type: 1
      name: "pts_bbox_head.cls_branches.5.6.bias"
  }
  initializer {
      dims: 256
      data_type: 1
      name: "pts_bbox_head.reg_branches.0.0.bias"
  }
  initializer {
      dims: 256
      data_type: 1
      name: "pts_bbox_head.reg_branches.0.2.bias"
  }
  initializer {
      dims: 10
      data_type: 1
      name: "pts_bbox_head.reg_branches.0.4.bias"
  }
  initializer {
      dims: 256
      data_type: 1
      name: "pts_bbox_head.reg_branches.1.0.bias"
  }
  initializer {
      dims: 256
      data_type: 1
      name: "pts_bbox_head.reg_branches.1.2.bias"
  }
  initializer {
      dims: 10
      data_type: 1
      name: "pts_bbox_head.reg_branches.1.4.bias"
  }
  initializer {
      dims: 256
      data_type: 1
      name: "pts_bbox_head.reg_branches.2.0.bias"
  }
  initializer {
      dims: 256
      data_type: 1
      name: "pts_bbox_head.reg_branches.2.2.bias"
  }
  initializer {
      dims: 10
      data_type: 1
      name: "pts_bbox_head.reg_branches.2.4.bias"
  }
  initializer {
      dims: 256
      data_type: 1
      name: "pts_bbox_head.reg_branches.3.0.bias"
  }
  initializer {
      dims: 256
      data_type: 1
      name: "pts_bbox_head.reg_branches.3.2.bias"
  }
  initializer {
      dims: 10
      data_type: 1
      name: "pts_bbox_head.reg_branches.3.4.bias"
  }
  initializer {
      dims: 256
      data_type: 1
      name: "pts_bbox_head.reg_branches.4.0.bias"
  }
  initializer {
      dims: 256
      data_type: 1
      name: "pts_bbox_head.reg_branches.4.2.bias"
  }
  initializer {
      dims: 10
      data_type: 1
      name: "pts_bbox_head.reg_branches.4.4.bias"
  }
  initializer {
      dims: 256
      dims: 256
      data_type: 1
      name: "pts_bbox_head.reg_branches.5.0.weight"
  }
  initializer {
      dims: 256
      data_type: 1
      name: "pts_bbox_head.reg_branches.5.0.bias"
  }
  initializer {
      dims: 256
      dims: 256
      data_type: 1
      name: "pts_bbox_head.reg_branches.5.2.weight"
  }
  initializer {
      dims: 256
      data_type: 1
      name: "pts_bbox_head.reg_branches.5.2.bias"
  }
  initializer {
      dims: 10
      data_type: 1
      name: "pts_bbox_head.reg_branches.5.4.bias"
  }
  initializer {
      dims: 4
      data_type: 7
      name: "val_5"
  }
  initializer {
      dims: 3
      data_type: 7
      name: "val_598"
  }
  initializer {
      dims: 1
      dims: 50
      dims: 128
      data_type: 1
      name: "unsqueeze_1"
  }
  initializer {
      dims: 3
      data_type: 7
      name: "val_608"
  }
  initializer {
      dims: 50
      dims: 1
      dims: 128
      data_type: 1
      name: "unsqueeze_2"
  }
  initializer {
      dims: 3
      data_type: 7
      name: "val_614"
  }
  initializer {
      dims: 3
      data_type: 7
      name: "val_619"
  }
  initializer {
      dims: 3
      data_type: 7
      name: "val_629"
  }
  initializer {
      dims: 1
      dims: 1
      dims: 256
      data_type: 1
      name: "unsqueeze_4"
  }
  initializer {
      dims: 4
      data_type: 7
      name: "val_636"
  }
  initializer {
      dims: 1
      dims: 6
      dims: 1
      dims: 256
      data_type: 1
      name: "unsqueeze_6"
  }
  initializer {
      dims: 3
      data_type: 7
      name: "val_642"
  }
  initializer {
      dims: 1
      dims: 128
      data_type: 1
      name: "relu_49"
  }
  initializer {
      dims: 4
      dims: 50
      dims: 50
      data_type: 1
      name: "expand_7"
  }
  initializer {
      dims: 4
      dims: 50
      dims: 50
      data_type: 1
      name: "expand_8"
  }
  initializer {
      data_type: 1
      name: "scalar_tensor_default_2"
  }
  initializer {
      dims: 4
      dims: 50
      dims: 50
      data_type: 1
      name: "expand_9"
  }
  initializer {
      dims: 3
      data_type: 7
      name: "val_828"
  }
  initializer {
      dims: 4
      data_type: 7
      name: "val_834"
  }
  initializer {
      dims: 1
      data_type: 7
      name: "val_850"
  }
  initializer {
      dims: 1
      data_type: 7
      name: "val_853"
  }
  initializer {
      dims: 1
      data_type: 7
      name: "val_857"
  }
  initializer {
      dims: 1
      dims: 1
      data_type: 7
      name: "val_880"
  }
  initializer {
      dims: 1
      data_type: 7
      name: "val_890"
  }
  initializer {
      dims: 1
      dims: 1
      data_type: 7
      name: "val_913"
  }
  initializer {
      dims: 1
      dims: 1
      data_type: 7
      name: "val_946"
  }
  initializer {
      dims: 4
      dims: 1
      dims: 2500
      dims: 1
      data_type: 1
      name: "ones_like"
  }
  initializer {
      dims: 5
      data_type: 7
      name: "val_968"
  }
  initializer {
      dims: 6
      data_type: 7
      name: "val_976"
  }
  initializer {
      dims: 1
      dims: 1
      dims: 6
      dims: 1
      dims: 4
      dims: 4
      data_type: 1
      name: "view_14"
  }
  initializer {
      dims: 6
      data_type: 7
      name: "val_998"
  }
  initializer {
      dims: 1
      data_type: 7
      name: "val_1007"
  }
  initializer {
      data_type: 1
      name: "val_1029"
  }
  initializer {
      data_type: 1
      name: "scalar_tensor_default_4"
  }
  initializer {
      dims: 4
      dims: 1
      dims: 6
      dims: 2500
      dims: 1
      data_type: 7
      name: "val_1034"
  }
  initializer {
      dims: 4
      dims: 1
      dims: 6
      dims: 2500
      dims: 1
      data_type: 7
      name: "val_1037"
  }
  initializer {
      data_type: 1
      name: "scalar_tensor_default_5"
  }
  initializer {
      dims: 4
      dims: 1
      dims: 6
      dims: 2500
      dims: 1
      data_type: 7
      name: "val_1041"
  }
  initializer {
      dims: 4
      dims: 1
      dims: 6
      dims: 2500
      dims: 1
      data_type: 7
      name: "val_1044"
  }
  initializer {
      data_type: 1
      name: "val_1085"
  }
  initializer {
      dims: 256
      dims: 256
      data_type: 1
      name: "val_1087"
  }
  initializer {
      dims: 4
      data_type: 7
      name: "val_1094"
  }
  initializer {
      dims: 512
      dims: 128
      data_type: 1
      name: "val_1095"
  }
  initializer {
      dims: 6
      data_type: 7
      name: "val_1104"
  }
  initializer {
      dims: 512
      dims: 64
      data_type: 1
      name: "val_1105"
  }
  initializer {
      dims: 4
      data_type: 7
      name: "val_1112"
  }
  initializer {
      dims: 5
      data_type: 7
      name: "val_1119"
  }
  initializer {
      dims: 1
      dims: 1
      dims: 1
      dims: 1
      dims: 1
      dims: 2
      data_type: 1
      name: "unsqueeze_20"
  }
  initializer {
      dims: 1
      dims: 2500
      dims: 1
      dims: 1
      dims: 1
      dims: 2
      data_type: 1
      name: "unsqueeze_22"
  }
  initializer {
      data_type: 1
      name: "scalar_tensor_default_6"
  }
  initializer {
      data_type: 1
      name: "scalar_tensor_default_7"
  }
  initializer {
      dims: 4
      data_type: 7
      name: "val_1129"
  }
  initializer {
      dims: 4
      data_type: 7
      name: "val_1135"
  }
  initializer {
      dims: 4
      data_type: 7
      name: "val_1141"
  }
  initializer {
      dims: 4
      data_type: 7
      name: "val_1149"
  }
  initializer {
      dims: 3
      data_type: 7
      name: "val_1155"
  }
  initializer {
      dims: 256
      dims: 256
      data_type: 1
      name: "val_1156"
  }
  initializer {
      dims: 1
      data_type: 7
      name: "val_1169"
  }
  initializer {
      dims: 1
      data_type: 7
      name: "val_1176"
  }
  initializer {
      dims: 1
      dims: 1
      dims: 1
      dims: 1
      dims: 1
      dims: 2
      data_type: 1
      name: "unsqueeze_26"
  }
  initializer {
      dims: 7
      data_type: 7
      name: "val_1221"
  }
  initializer {
      dims: 4
      data_type: 7
      name: "val_1237"
  }
  initializer {
      dims: 1
      data_type: 7
      name: "val_1655"
  }
  initializer {
      dims: 256
      dims: 256
      data_type: 1
      name: "val_1752"
  }
  initializer {
      dims: 256
      dims: 512
      data_type: 1
      name: "val_1756"
  }
  initializer {
      dims: 512
      dims: 256
      data_type: 1
      name: "val_1758"
  }
  initializer {
      dims: 256
      dims: 256
      data_type: 1
      name: "val_1764"
  }
  initializer {
      dims: 512
      dims: 128
      data_type: 1
      name: "val_1772"
  }
  initializer {
      dims: 512
      dims: 64
      data_type: 1
      name: "val_1782"
  }
  initializer {
      dims: 1
      dims: 2500
      dims: 1
      dims: 1
      dims: 1
      dims: 2
      data_type: 1
      name: "unsqueeze_113"
  }
  initializer {
      dims: 256
      dims: 256
      data_type: 1
      name: "val_1832"
  }
  initializer {
      dims: 256
      dims: 256
      data_type: 1
      name: "val_2423"
  }
  initializer {
      dims: 256
      dims: 512
      data_type: 1
      name: "val_2427"
  }
  initializer {
      dims: 512
      dims: 256
      data_type: 1
      name: "val_2429"
  }
  initializer {
      dims: 256
      dims: 256
      data_type: 1
      name: "val_2435"
  }
  initializer {
      dims: 512
      dims: 128
      data_type: 1
      name: "val_2443"
  }
  initializer {
      dims: 512
      dims: 64
      data_type: 1
      name: "val_2453"
  }
  initializer {
      dims: 1
      dims: 2500
      dims: 1
      dims: 1
      dims: 1
      dims: 2
      data_type: 1
      name: "unsqueeze_204"
  }
  initializer {
      dims: 256
      dims: 256
      data_type: 1
      name: "val_2503"
  }
  initializer {
      dims: 256
      dims: 256
      data_type: 1
      name: "val_3094"
  }
  initializer {
      dims: 256
      dims: 512
      data_type: 1
      name: "val_3098"
  }
  initializer {
      dims: 512
      dims: 256
      data_type: 1
      name: "val_3100"
  }
  initializer {
      dims: 1
      dims: 900
      dims: 256
      data_type: 1
      name: "zeros_like_6"
  }
  initializer {
      dims: 256
      dims: 3
      data_type: 1
      name: "val_3117"
  }
  initializer {
      dims: 3
      data_type: 7
      name: "val_3139"
  }
  initializer {
      dims: 2
      data_type: 7
      name: "val_3154"
  }
  initializer {
      dims: 3
      data_type: 7
      name: "val_3159"
  }
  initializer {
      dims: 256
      dims: 256
      data_type: 1
      name: "val_3162"
  }
  initializer {
      dims: 256
      dims: 64
      data_type: 1
      name: "val_3170"
  }
  initializer {
      dims: 6
      data_type: 7
      name: "val_3179"
  }
  initializer {
      dims: 256
      dims: 32
      data_type: 1
      name: "val_3180"
  }
  initializer {
      dims: 4
      data_type: 7
      name: "val_3187"
  }
  initializer {
      dims: 5
      data_type: 7
      name: "val_3194"
  }
  initializer {
      dims: 4
      data_type: 7
      name: "val_3209"
  }
  initializer {
      dims: 4
      data_type: 7
      name: "val_3215"
  }
  initializer {
      dims: 4
      data_type: 7
      name: "val_3223"
  }
  initializer {
      dims: 3
      data_type: 7
      name: "val_3229"
  }
  initializer {
      dims: 256
      dims: 256
      data_type: 1
      name: "val_3230"
  }
  initializer {
      dims: 256
      dims: 512
      data_type: 1
      name: "val_3234"
  }
  initializer {
      dims: 512
      dims: 256
      data_type: 1
      name: "val_3236"
  }
  initializer {
      dims: 256
      dims: 256
      data_type: 1
      name: "val_3240"
  }
  initializer {
      dims: 256
      dims: 256
      data_type: 1
      name: "val_3242"
  }
  initializer {
      dims: 256
      dims: 10
      data_type: 1
      name: "val_3244"
  }
  initializer {
      data_type: 1
      name: "val_3270"
  }
  initializer {
      dims: 2
      dims: 1
      data_type: 7
      name: "val_3289"
  }
  initializer {
      dims: 3
      dims: 900
      dims: 1
      data_type: 1
      name: "val_3291"
  }
  initializer {
      dims: 1
      dims: 900
      dims: 1
      data_type: 7
      name: "val_3297"
  }
  initializer {
      dims: 256
      dims: 256
      data_type: 1
      name: "val_3330"
  }
  initializer {
      dims: 256
      dims: 64
      data_type: 1
      name: "val_3338"
  }
  initializer {
      dims: 256
      dims: 32
      data_type: 1
      name: "val_3348"
  }
  initializer {
      dims: 256
      dims: 256
      data_type: 1
      name: "val_3408"
  }
  initializer {
      dims: 256
      dims: 512
      data_type: 1
      name: "val_3412"
  }
  initializer {
      dims: 512
      dims: 256
      data_type: 1
      name: "val_3414"
  }
  initializer {
      dims: 256
      dims: 256
      data_type: 1
      name: "val_3418"
  }
  initializer {
      dims: 256
      dims: 256
      data_type: 1
      name: "val_3420"
  }
  initializer {
      dims: 256
      dims: 10
      data_type: 1
      name: "val_3422"
  }
  initializer {
      dims: 3
      dims: 900
      dims: 1
      data_type: 1
      name: "val_3468"
  }
  initializer {
      dims: 256
      dims: 256
      data_type: 1
      name: "val_3507"
  }
  initializer {
      dims: 256
      dims: 64
      data_type: 1
      name: "val_3515"
  }
  initializer {
      dims: 256
      dims: 32
      data_type: 1
      name: "val_3525"
  }
  initializer {
      dims: 256
      dims: 256
      data_type: 1
      name: "val_3585"
  }
  initializer {
      dims: 256
      dims: 512
      data_type: 1
      name: "val_3589"
  }
  initializer {
      dims: 512
      dims: 256
      data_type: 1
      name: "val_3591"
  }
  initializer {
      dims: 256
      dims: 256
      data_type: 1
      name: "val_3595"
  }
  initializer {
      dims: 256
      dims: 256
      data_type: 1
      name: "val_3597"
  }
  initializer {
      dims: 256
      dims: 10
      data_type: 1
      name: "val_3599"
  }
  initializer {
      dims: 3
      dims: 900
      dims: 1
      data_type: 1
      name: "val_3645"
  }
  initializer {
      dims: 256
      dims: 256
      data_type: 1
      name: "val_3684"
  }
  initializer {
      dims: 256
      dims: 64
      data_type: 1
      name: "val_3692"
  }
  initializer {
      dims: 256
      dims: 32
      data_type: 1
      name: "val_3702"
  }
  initializer {
      dims: 256
      dims: 256
      data_type: 1
      name: "val_3762"
  }
  initializer {
      dims: 256
      dims: 512
      data_type: 1
      name: "val_3766"
  }
  initializer {
      dims: 512
      dims: 256
      data_type: 1
      name: "val_3768"
  }
  initializer {
      dims: 256
      dims: 256
      data_type: 1
      name: "val_3772"
  }
  initializer {
      dims: 256
      dims: 256
      data_type: 1
      name: "val_3774"
  }
  initializer {
      dims: 256
      dims: 10
      data_type: 1
      name: "val_3776"
  }
  initializer {
      dims: 3
      dims: 900
      dims: 1
      data_type: 1
      name: "val_3822"
  }
  initializer {
      dims: 256
      dims: 256
      data_type: 1
      name: "val_3861"
  }
  initializer {
      dims: 256
      dims: 64
      data_type: 1
      name: "val_3869"
  }
  initializer {
      dims: 256
      dims: 32
      data_type: 1
      name: "val_3879"
  }
  initializer {
      dims: 256
      dims: 256
      data_type: 1
      name: "val_3939"
  }
  initializer {
      dims: 256
      dims: 512
      data_type: 1
      name: "val_3943"
  }
  initializer {
      dims: 512
      dims: 256
      data_type: 1
      name: "val_3945"
  }
  initializer {
      dims: 256
      dims: 256
      data_type: 1
      name: "val_3949"
  }
  initializer {
      dims: 256
      dims: 256
      data_type: 1
      name: "val_3951"
  }
  initializer {
      dims: 256
      dims: 10
      data_type: 1
      name: "val_3953"
  }
  initializer {
      dims: 3
      dims: 900
      dims: 1
      data_type: 1
      name: "val_3999"
  }
  initializer {
      dims: 256
      dims: 256
      data_type: 1
      name: "val_4038"
  }
  initializer {
      dims: 256
      dims: 64
      data_type: 1
      name: "val_4046"
  }
  initializer {
      dims: 256
      dims: 32
      data_type: 1
      name: "val_4056"
  }
  initializer {
      dims: 256
      dims: 256
      data_type: 1
      name: "val_4116"
  }
  initializer {
      dims: 256
      dims: 512
      data_type: 1
      name: "val_4120"
  }
  initializer {
      dims: 512
      dims: 256
      data_type: 1
      name: "val_4122"
  }
  initializer {
      dims: 256
      dims: 10
      data_type: 1
      name: "val_4130"
  }
  initializer {
      dims: 3
      dims: 900
      dims: 1
      data_type: 1
      name: "val_4176"
  }
  initializer {
      dims: 256
      dims: 256
      data_type: 1
      name: "val_4183"
  }
  initializer {
      dims: 256
      dims: 256
      data_type: 1
      name: "val_4187"
  }
  initializer {
      dims: 256
      dims: 10
      data_type: 1
      name: "val_4191"
  }
  initializer {
      dims: 256
      dims: 10
      data_type: 1
      name: "val_4197"
  }
  initializer {
      dims: 1
      data_type: 7
      name: "val_4291"
  }
  initializer {
      dims: 1
      data_type: 7
      name: "val_4302"
  }
  initializer {
      dims: 64
      data_type: 1
      name: "img_backbone.conv1.weight_bias"
  }
  initializer {
      dims: 64
      data_type: 1
      name: "img_backbone.layer1.0.conv1.weight_bias"
  }
  initializer {
      dims: 64
      data_type: 1
      name: "img_backbone.layer1.0.conv2.weight_bias"
  }
  initializer {
      dims: 256
      data_type: 1
      name: "img_backbone.layer1.0.conv3.weight_bias"
  }
  initializer {
      dims: 256
      data_type: 1
      name: "img_backbone.layer1.0.downsample.0.weight_bias"
  }
  initializer {
      dims: 64
      data_type: 1
      name: "img_backbone.layer1.1.conv1.weight_bias"
  }
  initializer {
      dims: 64
      data_type: 1
      name: "img_backbone.layer1.1.conv2.weight_bias"
  }
  initializer {
      dims: 256
      data_type: 1
      name: "img_backbone.layer1.1.conv3.weight_bias"
  }
  initializer {
      dims: 64
      data_type: 1
      name: "img_backbone.layer1.2.conv1.weight_bias"
  }
  initializer {
      dims: 64
      data_type: 1
      name: "img_backbone.layer1.2.conv2.weight_bias"
  }
  initializer {
      dims: 256
      data_type: 1
      name: "img_backbone.layer1.2.conv3.weight_bias"
  }
  initializer {
      dims: 128
      data_type: 1
      name: "img_backbone.layer2.0.conv1.weight_bias"
  }
  initializer {
      dims: 128
      data_type: 1
      name: "img_backbone.layer2.0.conv2.weight_bias"
  }
  initializer {
      dims: 512
      data_type: 1
      name: "img_backbone.layer2.0.conv3.weight_bias"
  }
  initializer {
      dims: 512
      data_type: 1
      name: "img_backbone.layer2.0.downsample.0.weight_bias"
  }
  initializer {
      dims: 128
      data_type: 1
      name: "img_backbone.layer2.1.conv1.weight_bias"
  }
  initializer {
      dims: 128
      data_type: 1
      name: "img_backbone.layer2.1.conv2.weight_bias"
  }
  initializer {
      dims: 512
      data_type: 1
      name: "img_backbone.layer2.1.conv3.weight_bias"
  }
  initializer {
      dims: 128
      data_type: 1
      name: "img_backbone.layer2.2.conv1.weight_bias"
  }
  initializer {
      dims: 128
      data_type: 1
      name: "img_backbone.layer2.2.conv2.weight_bias"
  }
  initializer {
      dims: 512
      data_type: 1
      name: "img_backbone.layer2.2.conv3.weight_bias"
  }
  initializer {
      dims: 128
      data_type: 1
      name: "img_backbone.layer2.3.conv1.weight_bias"
  }
  initializer {
      dims: 128
      data_type: 1
      name: "img_backbone.layer2.3.conv2.weight_bias"
  }
  initializer {
      dims: 512
      data_type: 1
      name: "img_backbone.layer2.3.conv3.weight_bias"
  }
  initializer {
      dims: 256
      data_type: 1
      name: "img_backbone.layer3.0.conv1.weight_bias"
  }
  initializer {
      dims: 256
      data_type: 1
      name: "img_backbone.layer3.0.conv2.weight_bias"
  }
  initializer {
      dims: 1024
      data_type: 1
      name: "img_backbone.layer3.0.conv3.weight_bias"
  }
  initializer {
      dims: 1024
      data_type: 1
      name: "img_backbone.layer3.0.downsample.0.weight_bias"
  }
  initializer {
      dims: 256
      data_type: 1
      name: "img_backbone.layer3.1.conv1.weight_bias"
  }
  initializer {
      dims: 256
      data_type: 1
      name: "img_backbone.layer3.1.conv2.weight_bias"
  }
  initializer {
      dims: 1024
      data_type: 1
      name: "img_backbone.layer3.1.conv3.weight_bias"
  }
  initializer {
      dims: 256
      data_type: 1
      name: "img_backbone.layer3.2.conv1.weight_bias"
  }
  initializer {
      dims: 256
      data_type: 1
      name: "img_backbone.layer3.2.conv2.weight_bias"
  }
  initializer {
      dims: 1024
      data_type: 1
      name: "img_backbone.layer3.2.conv3.weight_bias"
  }
  initializer {
      dims: 256
      data_type: 1
      name: "img_backbone.layer3.3.conv1.weight_bias"
  }
  initializer {
      dims: 256
      data_type: 1
      name: "img_backbone.layer3.3.conv2.weight_bias"
  }
  initializer {
      dims: 1024
      data_type: 1
      name: "img_backbone.layer3.3.conv3.weight_bias"
  }
  initializer {
      dims: 256
      data_type: 1
      name: "img_backbone.layer3.4.conv1.weight_bias"
  }
  initializer {
      dims: 256
      data_type: 1
      name: "img_backbone.layer3.4.conv2.weight_bias"
  }
  initializer {
      dims: 1024
      data_type: 1
      name: "img_backbone.layer3.4.conv3.weight_bias"
  }
  initializer {
      dims: 256
      data_type: 1
      name: "img_backbone.layer3.5.conv1.weight_bias"
  }
  initializer {
      dims: 256
      data_type: 1
      name: "img_backbone.layer3.5.conv2.weight_bias"
  }
  initializer {
      dims: 1024
      data_type: 1
      name: "img_backbone.layer3.5.conv3.weight_bias"
  }
  initializer {
      dims: 512
      data_type: 1
      name: "img_backbone.layer4.0.conv1.weight_bias"
  }
  initializer {
      dims: 512
      data_type: 1
      name: "img_backbone.layer4.0.conv2.weight_bias"
  }
  initializer {
      dims: 2048
      data_type: 1
      name: "img_backbone.layer4.0.conv3.weight_bias"
  }
  initializer {
      dims: 2048
      data_type: 1
      name: "img_backbone.layer4.0.downsample.0.weight_bias"
  }
  initializer {
      dims: 512
      data_type: 1
      name: "img_backbone.layer4.1.conv1.weight_bias"
  }
  initializer {
      dims: 512
      data_type: 1
      name: "img_backbone.layer4.1.conv2.weight_bias"
  }
  initializer {
      dims: 2048
      data_type: 1
      name: "img_backbone.layer4.1.conv3.weight_bias"
  }
  initializer {
      dims: 512
      data_type: 1
      name: "img_backbone.layer4.2.conv1.weight_bias"
  }
  initializer {
      dims: 512
      data_type: 1
      name: "img_backbone.layer4.2.conv2.weight_bias"
  }
  initializer {
      dims: 2048
      data_type: 1
      name: "img_backbone.layer4.2.conv3.weight_bias"
  }
  initializer {
      data_type: 7
      name: "val_630"
  }
  initializer {
      data_type: 7
      name: "val_656"
  }
  initializer {
      data_type: 7
      name: "val_728"
  }
  initializer {
      data_type: 1
      name: "val_757"
  }
  initializer {
      dims: 1
      data_type: 7
      name: "val_818"
  }
  initializer {
      data_type: 7
      name: "val_854"
  }
  initializer {
      data_type: 1
      name: "val_859"
  }
  initializer {
      data_type: 1
      name: "val_860"
  }
  initializer {
      data_type: 7
      name: "val_887"
  }
  initializer {
      data_type: 1
      name: "val_927"
  }
  initializer {
      dims: 1
      data_type: 7
      name: "val_1123"
  }
  initializer {
      dims: 2
      data_type: 7
      name: "val_4307"
  }
  initializer {
      dims: 1
      data_type: 7
      name: "val_1231"
  }
  initializer {
      data_type: 7
      name: "val_1652"
  }
  initializer {
      data_type: 1
      name: "val_3150"
  }
  input {
    name: "images"
    type {
      tensor_type {
        elem_type: 1
        shape {
          dim {
            dim_value: 1
          }
          dim {
            dim_value: 6
          }
          dim {
            dim_value: 3
          }
          dim {
            dim_value: 480
          }
          dim {
            dim_value: 800
          }
        }
      }
    }

  }
  output {
    name: "cls_scores"
    type {
      tensor_type {
        elem_type: 1
        shape {
          dim {
            dim_value: 1
          }
          dim {
            dim_value: 900
          }
          dim {
            dim_value: 10
          }
        }
      }
    }

  }
  output {
    name: "bbox_preds"
    type {
      tensor_type {
        elem_type: 1
        shape {
          dim {
            dim_value: 1
          }
          dim {
            dim_value: 900
          }
          dim {
            dim_value: 10
          }
        }
      }
    }

  }
}
opset_import {
  domain: ""
  version: 18
}
